24x24train_CNN9_80e/best.onnx (onnx, 378327 bytes, 8 tensors)

classifier.2.weight f4 [10, 128]
000000 e0 c7 87 3e 5f 04 3b 3d ed c5 e6 bd ae 08 3e be
       0.2651968 0.045658465 -0.1126822 -0.18557999
000010 ca d7 19 be a6 3c e2 bd 6c d5 66 bd 25 51 b3 bc
       -0.15023723 -0.11046724 -0.05635588 -0.021889279
000020 ac 26 fc 3b 34 c0 2d be df 53 78 be 32 ee 27 3e
       0.0076950397 -0.16967851 -0.24250744 0.16399458
000030 62 c9 9c 3e 38 13 df bc 79 13 85 3e e2 ef 88 3d
       0.30622393 -0.027230844 0.2599142 0.06686379
000040 a4 48 6c 3e 47 01 7f be 52 19 95 be c9 09 96 be
       0.23074585 -0.24902831 -0.2912088 -0.2930434
000050 70 40 21 be d2 ff 67 be 38 e5 15 3e 4a eb c6 3d
       -0.15747237 -0.22656181 0.14638221 0.097128466
000060 e5 fb 47 3e 97 91 8c bd 52 70 32 bd 3e a5 56 be
       0.19529684 -0.068637066 -0.04356415 -0.20961472
000070 ce f3 86 be c8 34 93 3e 2a 98 81 be 24 a4 01 3d
       -0.26357883 0.28751206 -0.25311404 0.031650677
000080 6e b1 c9 3d f1 f6 85 3e a2 d7 c7 3e 7b 24 ea bc
       0.09848295 0.26164964 0.39031702 -0.028581848
000090 dd 69 3b 3e c6 ea ac 3e 8b f2 d8 3d 29 5d a5 3e
       0.18302102 0.33772868 0.105931364 0.32297638
0000a0 38 96 31 be 77 cf 35 3e 59 24 59 be b5 5e 1c be
       -0.1734246 0.17754923 -0.21205272 -0.15270503
0000b0 6e 9a e1 be 11 16 97 be c0 ad 82 3e 20 ba 8c 3e
       -0.44063133 -0.29509023 0.25523186 0.27485752
0000c0 5a c8 3f be f0 30 6f 3e c7 3c bf be cd 7b 93 bd
       -0.18728772 0.23358512 -0.37351057 -0.072013475
0000d0 86 9d c6 3d 5b e7 7a be 6f f1 35 be 09 49 10 be
       0.09698014 -0.24502318 -0.17767881 -0.1409036
0000e0 20 bc d8 bd 17 95 e1 bd 02 d9 17 3e 5a a1 00 3e
       -0.10582757 -0.11014765 0.14828876 0.1256155
0000f0 18 08 af bd ad b2 9d 3e e7 f4 12 3d 7b fb b2 bd
       -0.08546466 0.3080038 0.03587809 -0.08739372
000100 f4 35 ab 3e e2 4f 2b be 02 5b 7a bd eb 37 2d be
       0.334396 -0.16729692 -0.061121948 -0.16915862
000110 1b 23 90 be 00 6a b8 3d 23 a2 a2 bc b7 5c 93 3d
       -0.28151783 0.09004593 -0.019852703 0.07195418
000120 c4 88 af bd 64 86 6f 3e 88 a7 17 be 32 70 d3 be
       -0.08571008 0.2339111 -0.14810002 -0.41296536
000130 13 6b a8 be e0 89 39 3e c8 52 7a be 58 b8 dc 3c
       -0.3289419 0.18119001 -0.24445641 0.02694337
000140 5a 82 65 3e a1 db 9a 3d 64 42 2a be e6 28 45 be
       0.22413006 0.07561422 -0.16626889 -0.19253883
000150 c6 b1 65 3e d5 07 99 3e 7a 71 cc bd 48 c6 f8 3d
       0.22431096 0.29888788 -0.099825814 0.12147194
000160 b8 44 91 be fe 38 a9 3e 00 95 70 be c2 54 be be
       -0.2837274 0.33051294 -0.23494339 -0.3717404
000170 d0 79 1a be e3 12 89 3e 64 00 25 b9 3a b7 4f bd
       -0.1508553 0.26772222 -0.00015735772 -0.050711848
000180 5b 18 11 3e 54 1d 0f 3d 83 08 03 bd 4f f0 6e be
       0.14169447 0.03494008 -0.03199054 -0.23333858
000190 fd 91 83 3e bf f6 54 bd f3 5c 2d bd 20 cc 0f 3d
       0.25697318 -0.051993128 -0.04232497 0.03510678
0001a0 50 48 f3 bb bf 8a 8f bc a0 d7 22 be c5 97 80 be
       -0.007424392 -0.017522214 -0.15902567 -0.2511579
0001b0 94 dc 46 be 97 86 c7 bb 0f c8 b2 bd 7f a2 21 be
       -0.19420081 -0.0060890424 -0.087295644 -0.15784644
0001c0 62 57 08 be 8e ee 87 3e 10 27 94 3e 5d 2e 5f be
       -0.13314584 0.2654919 0.28936052 -0.2179503
0001d0 95 78 25 be 42 d1 3c 3e f1 cf 4e 3e 91 4b 0d be
       -0.1615928 0.184392 0.20196511 -0.13798358
0001e0 90 61 3c 3d 22 5c a0 3e eb ba 2e 3d fc 7b 4c be
       0.04599148 0.31320292 0.042658728 -0.19969171
0001f0 f4 6a 51 3c 1f 39 a8 be 6f c6 81 be 7d 3c c7 bd
       0.012781847 -0.3285608 -0.25346705 -0.09728334
000200 fa fd 5c 3e 79 0a 7f 3d bf 43 0c 3e 64 4a 55 be
       0.2158126 0.062265847 0.13697718 -0.20829159
000210 eb 43 be 3d 90 51 ca 3d 54 8a 54 be 37 cb 8e be
       0.09290298 0.09878838 -0.20755893 -0.27889416
000220 b5 ba 36 bd d9 06 c1 bd 05 27 27 bd 08 32 3b 3e
       -0.04461165 -0.09425134 -0.040808696 0.18280804
000230 93 9f 9f be ce aa fe bd 90 d1 44 3e 28 99 2e bd
       -0.31176433 -0.12434922 0.19220567 -0.04262653
000240 6b 24 e4 bd cb 8d 8e 3e c0 6a 84 3e 54 e7 7d 3e
       -0.11139759 0.27842554 0.25862694 0.24795276
000250 f8 47 6b be b9 a7 9f 3e 48 34 83 3e d7 17 a9 3e
       -0.22976673 0.3118265 0.25625825 0.33026
000260 54 85 f0 3d a1 78 6e 3e d5 54 09 be cb 36 0b bd
       0.1174418 0.23288204 -0.13411267 -0.0339878
000270 a6 5f 0c bd e7 c6 45 be 03 52 5b 3e 89 04 88 3e
       -0.034270905 -0.19314156 0.21418004 0.2656596
000280 ee 5b 74 be 77 8d 36 3d f9 ff 92 be 6f f3 69 bd
       -0.23863193 0.044568505 -0.28710917 -0.057116922
000290 61 50 bf be b4 71 7b be a5 16 3e 3b 95 23 0e 3e
       -0.37366012 -0.24555093 0.0029005196 0.13880761
0002a0 8d 3d 24 be 07 9b 9c be e8 8e 56 3e 81 a0 98 be
       -0.16039105 -0.30587026 0.20952952 -0.29809955
0002b0 dc 8e 41 3e c0 14 7c be 28 c1 80 be 02 9a 17 be
       0.18902153 -0.2461729 -0.25147367 -0.14804843
0002c0 ed 61 83 3e 10 52 41 3e ca 28 22 3e b9 8d 95 3c
       0.2566065 0.1887896 0.15835872 0.018256055
0002d0 1c 50 20 bd ef 06 c6 be ef ec 26 bd 99 76 88 3e
       -0.0391389 -0.38677165 -0.0407533 0.26652983
0002e0 0a e0 99 3e c5 82 a8 be 12 43 a0 3c 9c 08 cf be
       0.3005374 -0.3291227 0.019563232 -0.40436256
0002f0 4d 01 0b be 2e 7a 4f be d9 46 3d 3e 68 9d ab bc
       -0.13574715 -0.20261452 0.18484057 -0.02094908
000300 c7 50 62 be 13 94 33 bc 8d 6e 28 3e 80 25 46 3d
       -0.22101127 -0.010960597 0.16448422 0.048375607
000310 41 e7 b7 3d da e6 31 3d 2d 09 8b be f4 eb 89 be
       0.08979655 0.043433048 -0.27155438 -0.2693783
000320 a2 50 38 be 8c d9 0f 3e de 0a 94 be c8 5d 44 be
       -0.17999509 0.14047831 -0.2891454 -0.191764
000330 f4 ba 8f 3e 29 9b e3 be 97 cb 7b 3c 39 41 92 bd
       0.2807232 -0.44454315 0.015368364 -0.071413465
000340 81 a8 64 be 65 82 81 3e 79 20 7a be 74 b6 80 be
       -0.22329904 0.25294796 -0.2442645 -0.251392
000350 a2 f0 94 bd 05 72 0b be 9b cc 39 be 48 50 a8 be
       -0.072724596 -0.13617714 -0.18144457 -0.3287375
000360 29 79 24 be f1 31 46 3e 33 3b 65 be cc f8 98 3d
       -0.16061844 0.19354989 -0.22385864 0.07469329
000370 d5 b5 b4 3e 22 53 94 bd 43 ea e6 3c 59 6d 4a 3e
       0.35294977 -0.07242419 0.028187877 0.19768275
000380 b0 a9 8f 3e 3b de a7 be 3d e0 99 be ee b9 4e be
       0.2805915 -0.32786736 -0.30053893 -0.20188114
000390 bf 91 95 bd 16 eb 9e bd 01 91 01 3e 6b b3 a6 3e
       -0.073031895 -0.07759683 0.12652971 0.3255876
0003a0 3d c3 a1 3d fa 87 39 be b0 a6 83 bd 83 3c e3 3d
       0.07898567 -0.18118277 -0.064282775 0.11095526
0003b0 37 9a 3e 3e 4d 28 05 be 1a 17 80 3e 4e 86 b2 bd
       0.18613516 -0.13003655 0.25017625 -0.08717023
0003c0 bd 89 9b 3e 4b 63 e1 3c aa d2 4e be 92 76 69 be
       0.30378523 0.027513167 -0.2019755 -0.22799137
0003d0 d2 b0 a0 bd d1 4d 22 3d f4 e2 e1 be e0 5c 4f be
       -0.07846226 0.039624993 -0.44118464 -0.20250273
0003e0 85 05 7f 3d 05 97 3c 3e a6 11 21 3e 14 e4 21 bd
       0.062261123 0.18416984 0.15729389 -0.039524153
0003f0 2d e6 8c 3e d7 93 a9 bd 36 77 32 3e 51 f6 f7 bd
       0.2751936 -0.08280151 0.17428288 -0.12107528

classifier.2.bias f4 [10]
000000 43 8b 87 3b 79 58 8f 3d e5 1a 34 bd b7 07 35 3d
       0.0041364743 0.06999297 -0.04397096 0.04419681
000010 85 a1 83 bc 8b e7 a1 3d d2 39 18 bd 03 98 2f bd
       -0.01606823 0.079054914 -0.037164517 -0.04286958
000020 d6 a6 80 3d 70 88 30 bd
       0.062818214 -0.043098867

onnx::Conv_40 f4 [32, 1, 3, 3]
000000 05 11 94 bf eb b7 1e bf b0 80 6a bf 52 ab 7e 3f
       -1.1567694 -0.61999387 -0.9160261 0.99480164
000010 90 aa b6 bd f8 6a 9e be 85 77 ee 3e 22 1d 48 3f
       -0.08919251 -0.30940986 0.4657556 0.78169453
000020 ef c0 86 3f e5 7b 41 3f 15 a9 bf bf f9 ac 0b bf
       1.0527629 0.75579673 -1.4973475 -0.5456081
000030 22 78 f7 3f 9d fe f9 bf 99 d5 ae 3f 8f 4f c5 3f
       1.9333537 -1.9530827 1.3658935 1.5414904
000040 9b b1 81 bf ab b9 4f 3e 57 b5 7c bf 0a 1b 27 bf
       -1.0132326 0.2028567 -0.987142 -0.65275633
000050 75 84 5b 3f 86 b0 9d bf 0a 4b 78 b9 78 56 3c 3f
       0.8574899 -1.2319496 -0.00023679077 0.7356944
000060 9c fb 1c c0 32 fe b5 3f df ce 16 40 a7 37 d7 3f
       -2.452857 1.4218199 2.3563764 1.6813859
000070 44 b4 bd bf 88 fc 96 bf 84 26 91 3f 7e c1 06 40
       -1.4820638 -1.1795816 1.1339879 2.1055598
000080 db 88 3a c0 1b 51 86 3f a9 a2 d4 be 62 f1 0a 3f
       -2.914603 1.0493501 -0.4153035 0.5427457
000090 16 2a 47 c0 a1 c3 50 3e 4a 26 38 40 53 0b 6d 40
       -3.1119437 0.20387127 2.877337 3.7038162
0000a0 0a 19 4c bf f7 c2 4c c0 06 ce bc bf 97 90 36 bf
       -0.79725707 -3.1993997 -1.4750373 -0.71314377
0000b0 8f 64 45 3f b2 82 4d 3e 46 43 5f 3f 7e e1 70 3f
       0.77106565 0.20069388 0.87212026 0.94094074
0000c0 4e 73 c4 be e8 1c 09 bf ac 92 c1 3f 18 a2 92 bf
       -0.3836922 -0.5355973 1.5122886 -1.1455717
0000d0 72 0f 3c bf 21 a6 a5 bf 70 4d 11 3f c8 08 c3 3f
       -0.7346107 -1.2941324 0.56758785 1.5237055
0000e0 a8 b8 2d bf 68 42 e2 3f 6b 15 89 3f a8 55 94 bf
       -0.6785989 1.7676516 1.0709661 -1.158864
0000f0 88 1b 32 bd a7 c8 9f bf 41 cd da bf 79 76 89 bf
       -0.043483287 -1.2483109 -1.7093889 -1.073928
000100 22 16 2e 3f ce 89 1a 3f 72 4b 3f bf 92 b1 65 3e
       0.6800252 0.60366523 -0.74724495 0.22431019
000110 fb fa 9b 3f 6e 02 55 bf 6a 03 4d 3f 6b a2 a1 3e
       1.2185968 -0.8320683 0.80083334 0.31569228
000120 7f 52 8f bf 46 cb 03 bf 5d 22 7c bf d1 17 7f bf
       -1.1197051 -0.51482046 -0.98489934 -0.99645716
000130 49 1c 6f 3f d1 3e 96 bc 31 35 32 bf ba 20 18 3f
       0.93402535 -0.0183405 -0.69612414 0.59424937
000140 da ef 6d 3f 87 4b 2c bf af 26 6b be 56 d0 20 be
       0.9294411 -0.67302746 -0.22963975 -0.15704474
000150 00 13 35 bf 6c 58 e2 3f 04 28 cc 3f 9c b9 21 bf
       -0.70732117 1.7683234 1.5949712 -0.6317384
000160 5b 12 ed 3f dd e0 9e bf 8b b0 48 c0 c8 dc f0 40
       1.8521227 -1.2412373 -3.1357753 7.526951
000170 53 ea af c0 61 65 79 bf ae 26 9f 3e d5 75 76 3f
       -5.497354 -0.97420317 0.31084198 0.9627355
000180 06 de 36 40 f5 10 3b c0 8f fa a9 3f ca e6 f0 bd
       2.8573012 -2.92291 1.327959 -0.117627695
000190 ec f3 8a be 5d 54 a3 be 4d f3 3d be 8f 4a 28 be
       -0.27139223 -0.31900302 -0.18549843 -0.16434692
0001a0 11 e4 05 bf dc bc c5 3e ed 0c 76 bd ac dc 46 bf
       -0.52301127 0.3862065 -0.06007092 -0.7768047
0001b0 a5 dc 9a be f7 44 d0 3d 51 ee 2c bf 84 6b 81 be
       -0.30246463 0.10169404 -0.6755114 -0.2527734
0001c0 23 44 09 3e 48 6e b7 be 8d f9 52 bf cd bb 86 3e
       0.13404898 -0.35826325 -0.82412034 0.26315156
0001d0 06 ec ce be a5 c5 43 3f 1c 21 48 c0 d4 86 f9 3d
       -0.40414447 0.76473457 -3.1270208 0.121839195
0001e0 d1 d0 31 bf ff 84 a3 3f a2 85 05 40 e8 94 45 bd
       -0.69459254 1.2774962 2.0862813 -0.04823771
0001f0 c3 b6 6d 40 46 d6 97 c0 45 66 c3 bf 7f 3f 66 3f
       3.71428 -4.7449064 -1.5265585 0.8994064
000200 d5 63 65 3f 6b 0a c7 bf f1 ce 20 bc 8c 9c 5b 3f
       0.89605457 -1.5550054 -0.009814964 0.85785747
000210 02 c7 d2 be 42 59 c4 3e 37 76 ba bf 5c 03 c4 bf
       -0.41167456 0.38349348 -1.4567326 -1.5313525
000220 14 4c 88 bf 5a 01 03 bf 7a 31 93 3f 69 70 9d 3f
       -1.0648217 -0.5117394 1.1499474 1.229993
000230 ff fe 7f 3e 3b 92 7a 3f d1 58 c9 3e fe 00 b3 bf
       0.24999617 0.9787938 0.39325574 -1.3984678
000240 d1 5b 5a bf a7 3d c3 3f c9 81 8a be 38 a9 1e 40
       -0.8529635 1.525319 -0.27052143 2.4790783
000250 fc 50 83 bf db 33 dc bf e2 7d 0b 40 71 02 a5 bf
       -1.025909 -1.7203325 2.1795583 -1.289137
000260 fb eb 84 bf 4d 97 31 3f 40 2c a8 bf 09 c7 50 be
       -1.0384516 0.6937149 -1.3138504 -0.20388426
000270 54 8e 43 bf 58 f4 16 3f 7e 4d 08 c0 bb 8b ff 3f
       -0.7638905 0.5896659 -2.1297297 1.9964517
000280 68 99 75 3f ed 2b 42 38 30 e0 0a 40 46 73 91 bf
       0.95937204 4.6294113e-05 2.1699333 -1.1363304
000290 73 f7 ce bf b0 f8 35 bf 1a 1e 84 be 24 46 ee 3f
       -1.6169266 -0.7108259 -0.25804216 1.8615155
0002a0 e6 27 33 bf a8 27 3e 3f e7 c7 14 c0 b5 42 d4 3f
       -0.69982755 0.7427926 -2.324701 1.6582857
0002b0 10 4c c8 bb bf 08 ca bf 1f bf f0 bf f3 07 4d 3f
       -0.006112583 -1.5783919 -1.8808326 0.80090255
0002c0 48 ac f0 bf af 0d 25 c0 3d 2e 21 40 7a c0 d4 3f
       -1.8802576 -2.5789602 2.5184472 1.6621239
0002d0 10 48 89 3f 4e 3f 3d 3f 90 ca 14 3e b7 d5 e3 be
       1.0725117 0.7392472 0.14530396 -0.4449899
0002e0 a2 54 c7 be 9f 0a 36 bf f6 61 6e 3f a2 15 3b 3e
       -0.38931757 -0.71109957 0.93118227 0.18269971
0002f0 73 ba 43 3f d6 61 01 3f 97 93 c0 bf 11 9b 5b 40
       0.76456374 0.5053991 -1.5045041 3.4313395
000300 ba 83 3c bf b9 ce 2c bf f0 b4 c9 3e 9c 80 1b c0
       -0.736385 -0.67502934 0.39395857 -2.4297247
000310 21 e7 03 40 9a d1 8e bf 4d 64 54 bd 6e 80 59 bf
       2.060982 -1.1157715 -0.051853467 -0.84961593
000320 7e a0 b7 bf 67 bf e0 3f 92 74 ff 3e d6 83 99 bf
       -1.4345853 1.7558411 0.49893624 -1.1993358
000330 8d 1a 4e 3f 1d a8 60 bf fd 4e 2a 3e 8a 04 a4 bf
       0.80509263 -0.8775652 0.16631694 -1.2813885
000340 6b e6 09 3f 49 58 3c bf 84 69 af bf 83 60 2c bf
       0.53867215 -0.7357221 -1.3704076 -0.67334765
000350 3a 32 14 3f 71 47 9a 3f 3f 06 1f 3f e2 a7 9d 3f
       0.5788914 1.2053052 0.62118906 1.2316859
000360 3d 1e f0 3f 13 b7 95 3f 0f 90 59 bf e9 d9 0b c0
       1.8759228 1.1696495 -0.8498544 -2.1851752
000370 0e 42 17 c0 e2 86 bd 3e 10 c7 bb 3f ec 1b 5b be
       -2.3634067 0.3701697 1.4670124 -0.2139737
000380 20 ff d9 3f ae 0a bc 3e fe 3e 03 3f b0 db e4 3e
       1.7030983 0.36726898 0.51267993 0.44698858
000390 81 c9 0e 3e 8b 14 8b 3e 40 6d ca 3e bd 98 7d bd
       0.13944055 0.2716411 0.39536476 -0.06191324
0003a0 22 ae 57 be 17 15 91 3e e6 6f c3 be 6b 24 b3 bf
       -0.2106252 0.28336403 -0.3817131 -1.3995489
0003b0 52 9c 97 bf 7c 63 11 40 cd fb c9 3f 3e 2d 99 3f
       -1.184458 2.271697 1.5779969 1.1966932
0003c0 c6 e1 16 c0 99 c7 8d be 8f b1 48 3e 79 6d 08 40
       -2.35753 -0.27691343 0.19598983 2.1316817
0003d0 78 da a7 3f e8 b3 ce be 09 5b 06 bf b6 56 9a bf
       1.3113546 -0.40371633 -0.5248266 -1.2057712
0003e0 29 65 f0 bf 38 bd 27 bc 27 91 86 bf f5 02 63 3f
       -1.8780872 -0.010237984 -1.0513047 0.8867639
0003f0 ec 95 1a c0 23 98 ad bf fa 01 74 40 28 6e 2d c0
       -2.4154005 -1.3562053 3.8126206 -2.7098484

onnx::Conv_41 f4 [32]
000000 fc e8 15 be 80 56 e7 3e 98 ca ff bd 1e 48 b1 3d
       -0.14639658 0.45183182 -0.124898136 0.086563334
000010 fc d4 7e bf c9 06 aa be 14 ea 61 bd d9 a5 14 3f
       -0.9954374 -0.33208302 -0.055154875 0.58065563
000020 7e 7c 52 bf 7e e9 74 3f a7 0d 98 3e e2 58 8c bf
       -0.8222121 0.9566878 0.29697916 -1.0964625
000030 c6 48 95 bf ff 31 f5 bd 6a 30 82 bf 07 62 db be
       -1.1662834 -0.119724266 -1.0171025 -0.42848226
000040 3a a3 07 be 41 41 1f be bd f9 7d bf 54 82 68 bf
       -0.1324586 -0.15552236 -0.99209195 -0.90823865
000050 5b 2b 8b 3f be 32 8b be 6c a7 50 bf 19 08 1c be
       1.0872606 -0.2718715 -0.81505466 -0.15237464
000060 fe 4d 8d 3e 0a 70 6f 3f 22 67 64 bd b9 46 00 bf
       0.27598566 0.93530333 -0.055762418 -0.50107914
000070 f4 27 94 bd 98 72 55 3c 3f 70 9e bf 93 ae 31 be
       -0.07234183 0.01302781 -1.2378005 -0.17351751

onnx::Conv_43 f4 [64, 32, 3, 3]
000000 45 80 7c bc d2 16 33 3a ef 9a 88 bb 54 e4 20 bc
       -0.015411441 0.00068317086 -0.00416886 -0.009820063
000010 ad c0 c8 bc a7 db 80 bc 4d 80 ac 3d c2 05 81 3d
       -0.024505937 -0.015729738 0.08422909 0.06299926
000020 e8 7d b1 3d c5 bf 84 3d 2a 7e 3e bb ee b3 a3 3c
       0.08666593 0.0648189 -0.00290669 0.019983258
000030 ac 93 bf 3c 45 6b 3c bd e1 8b 50 bd da e8 8e 3d
       0.023385845 -0.046000738 -0.05091465 0.06978007
000040 94 06 d0 3d 52 09 70 3d d6 8d 42 3d 31 50 da bc
       0.10157505 0.05860264 0.047498547 -0.026649566
000050 57 74 10 3c 0a 26 bd bc df 46 41 bd bf c9 4d bb
       0.0088168 -0.023089428 -0.04718673 -0.0031400768
000060 86 5d b3 3c a3 e2 1a 3d 0c 36 57 3c 4a f5 22 3d
       0.021895181 0.037813794 0.013135444 0.039784707
000070 bf 11 15 bd 3d da 60 3d 77 88 6b bd ab 67 3b bd
       -0.036393877 0.05489563 -0.05750319 -0.045753162
000080 d1 28 80 bd b2 01 3a 3d b7 bd 08 b9 b0 8d 28 bc
       -0.06257785 0.045411773 -0.00013040645 -0.010287687
000090 78 32 82 3c 82 9b 25 bd d5 52 da 3c 60 4a 2b bd
       0.015893206 -0.040431507 0.026650826 -0.041818976
0000a0 c2 3b 2a bc c2 06 95 bc 52 71 29 3d 81 5a be 3c
       -0.010390224 -0.018191699 0.041367836 0.023236515
0000b0 f1 16 c1 3c 9f 06 67 bd c9 24 05 bd 53 69 ba 3d
       0.02357051 -0.0564028 -0.032505784 0.0910212
0000c0 d5 3b 38 3d 75 45 1e bd 8e b0 7e bd f4 d7 2b 3d
       0.044978935 -0.038640458 -0.062180094 0.041953996
0000d0 fe a5 08 3d c0 81 88 3d 68 63 87 3c 35 6b ef bc
       0.033361427 0.06665373 0.016526893 -0.029225925
0000e0 b9 f2 27 bd db 71 ac bd 7f e4 55 3c 25 c8 2c 3d
       -0.041002963 -0.08420154 0.013054966 0.04218306
0000f0 09 85 c1 3c 71 d2 27 3c 56 e5 4f bc b4 62 9d bd
       0.023623006 0.010243044 -0.012688955 -0.07684842
000100 f3 4e 63 bd 7d f6 79 3c e9 e4 bb bd c1 a4 3b bc
       -0.055495214 0.015256521 -0.091745205 -0.011452855
000110 36 4a 8c bd 2e fe 9f bc 2c 71 38 3d ef 93 a7 bc
       -0.06850092 -0.019530382 0.045029804 -0.020456282
000120 95 70 d7 bc c3 c7 2a bc eb 04 69 bc 90 a6 2b bd
       -0.0262988 -0.0104236035 -0.014222364 -0.041906893
000130 68 3d 63 bc 45 ed a9 3c 0f bb 3b 3d 66 eb cc 3c
       -0.013869621 0.020743022 0.04583269 0.02501459
000140 cf 48 11 3d 0d 67 8a bd a8 0f b0 bc 0d c2 0a bd
       0.035469826 -0.067579366 -0.02149184 -0.033876467
000150 47 b4 58 bd 3d 7d 75 bd ee 8c 37 bd 2f f3 2d bc
       -0.0529063 -0.05993389 -0.044812135 -0.0106170615
000160 92 ec 11 bc 30 94 dd 3c f2 df 65 bc 95 cd cf bc
       -0.0089065 0.0270482 -0.0140304435 -0.025366584
000170 d2 08 9b bd c7 51 ff bc b0 0a 23 3c aa 9c 9d bb
       -0.07570042 -0.031166924 0.009951279 -0.0048099356
000180 87 05 81 3d 9a cb 06 3d 47 d3 97 bd a1 03 8e bd
       0.062998824 0.032909013 -0.07413345 -0.06934286
000190 21 e0 aa bb 2c 92 d4 bd 9d 16 ca 3b ab 68 39 bd
       -0.0052147065 -0.103794426 0.0061672465 -0.045265835
0001a0 02 cd 64 bd 45 50 ad 3d 96 9e cc 3b 41 0d 8d 3d
       -0.055859573 0.08462576 0.006244491 0.068872936
0001b0 e5 c8 a8 bd bf a5 8e bd 17 07 b2 bd d5 07 95 bd
       -0.082414426 -0.06965207 -0.086927585 -0.072768845
0001c0 a2 37 12 bd 2f 14 a5 38 f4 3d 05 3c 07 ca 50 3d
       -0.035697587 7.8715726e-05 0.008132447 0.05097392
0001d0 21 d0 66 3d 84 94 11 bc 46 8a d7 38 43 c2 4d bb
       0.05635083 -0.008885507 0.00010277754 -0.0031396307
0001e0 2f 7f 83 3c a1 00 84 3d 00 ee ac b9 f8 31 23 bd
       0.016051857 0.064454325 -0.0003298372 -0.039842576
0001f0 f6 5f 09 3d f1 56 40 bd 54 ca d4 bd 2b b0 d8 bd
       0.03353878 -0.046957914 -0.103901535 -0.105804764
000200 f4 06 2f ba 94 83 77 3d 33 7c 1c bd d4 35 2f bd
       -0.00066767563 0.060428217 -0.038204383 -0.042775944
000210 ca 53 69 3d 85 77 90 3d 53 21 35 3d e2 90 b8 3a
       0.056964673 0.070540465 0.044221234 0.0014081264
000220 79 b9 39 bd 6f 28 ef 3b 97 04 4f 3c 11 6b 32 bd
       -0.045342896 0.007298521 0.012635372 -0.043559138
000230 dd 46 03 bd 13 60 73 3d 6a 14 80 3d 39 a9 6c 3d
       -0.032050002 0.059417795 0.06253894 0.05777857
000240 35 ca 73 bd d9 b9 87 bd a3 46 1b bc e9 79 99 bd
       -0.05951901 -0.066272445 -0.00947729 -0.07493956
000250 4b 2d 8c bb 39 a2 f7 3c 1a 23 5f bc 9f 5c 89 ba
       -0.0042778603 0.030228721 -0.013619209 -0.0010479874
000260 b4 b6 96 3c 2f b9 64 3d 72 df 44 bd f8 ef 45 bc
       0.018397667 0.055840667 -0.048064657 -0.012081139
000270 18 6c 8b 3d 14 b9 48 bd d6 b3 b2 bd 36 6b 01 3d
       0.068077266 -0.04900463 -0.08725707 0.031596385
000280 e4 87 0e 3b 49 07 2e bb a2 3d ba bd ee 39 89 bd
       0.0021748478 -0.0026554635 -0.09093787 -0.06700502
000290 3a 01 ad bd 35 0d 9a ba a6 6f f2 3c c8 ed d1 bc
       -0.084474996 -0.0011753204 0.029594254 -0.025626078
0002a0 0b 6b 14 3d 01 57 13 3d e4 56 50 3d a9 c5 71 3d
       0.036234897 0.035971645 0.050864115 0.059026394
0002b0 0a b6 df 3c 03 45 6e bd 63 47 87 bd 12 e9 d9 3c
       0.027308483 -0.058171283 -0.06605413 0.026600394
0002c0 5a 2e fe 3a 9f 65 1e bd 70 58 04 3d 1b cb e2 bb
       0.0019392476 -0.038671132 0.032310903 -0.0069211847
0002d0 83 44 cf 3b 45 75 29 bc 71 73 cf bc 9b 14 c6 3c
       0.006325306 -0.010342901 -0.025323601 0.024179747
0002e0 65 04 5d 3c fa ae 87 bc a1 4f 9e bc 0e 4f 11 bd
       0.013489817 -0.016562928 -0.01932508 -0.035475783
0002f0 30 85 76 3b 45 35 92 bd e6 dd e4 3c ce 17 72 3d
       0.0037616007 -0.071390666 0.02793784 0.059104733
000300 0b da 25 3d b1 d6 b9 bc b8 2c 0e bd c8 b6 38 3d
       0.040491145 -0.02268538 -0.034710616 0.04509619
000310 6e 96 c2 3d d8 83 44 3d 97 61 b9 bb 4e 44 be bc
       0.095013484 0.0479773 -0.0056573856 -0.02322593
000320 3e c9 0d 3c 8c b0 37 3c 72 16 c4 3c 0c 15 2a bd
       0.008653937 0.011211526 0.023936484 -0.041523978
000330 d9 6e 3e bb e2 f5 a7 3d f5 13 55 bb 00 1b 91 bc
       -0.002905777 0.08201195 -0.0032513116 -0.01771307
000340 0f 48 5f bd 87 f0 33 bd d7 f2 00 bd f3 4e 65 3c
       -0.05451208 -0.043930557 -0.03148159 0.013995874
000350 cf d3 e1 3c 49 17 57 3d b9 5e 28 3c 8e 8a 1e 3d
       0.027566819 0.05251244 0.01027649 0.038706355
000360 c1 d4 12 bc 8d 93 88 bc 3c 2a fe 3c c5 fd f9 bc
       -0.008961857 -0.01667192 0.031025998 -0.030516515
000370 3c 28 82 bc 63 9e 0e 3d 0a 4a 67 3d 9a 88 5a bc
       -0.015888326 0.034819018 0.056467094 -0.013338232
000380 98 5b 13 3d aa 59 fb 3c b3 3e 9f 3c c0 88 cf 3c
       0.035976022 0.030682404 0.019439077 0.025333762
000390 ac a5 7b bd c2 09 aa bd e6 34 57 bd 8a 96 02 bd
       -0.061437294 -0.083026424 -0.052540682 -0.031881846
0003a0 ec 14 78 3c 10 7d 2b bd 1e 3f 66 3b fa 3e 01 bd
       0.015141707 -0.041867316 0.0035132836 -0.0315542
0003b0 de 65 9c 3c 7b 9a c4 3c 85 c3 c4 3a 75 71 ca bb
       0.019091543 0.023999443 0.0015011883 -0.006178076
0003c0 27 ef 7a 3c 79 f5 97 bb 5c 87 07 bd fd 1d 1d 3d
       0.015315807 -0.004637417 -0.033088073 0.038358677
0003d0 3f 26 51 3d 1b b8 4a 3d d3 48 d1 bc 01 8d cd bc
       0.051061865 0.049491983 -0.02554742 -0.02509165
0003e0 6e 63 ab bc 3c 59 c9 3d d2 b2 8e 3d bd 74 96 3c
       -0.020921435 0.09831473 0.06967701 0.018366212
0003f0 95 f2 ed bc f4 e7 93 bd e6 c1 99 bb 5f 98 f3 bd
       -0.029046336 -0.07221976 -0.004692304 -0.11894297

onnx::Conv_44 f4 [64]
000000 c0 40 39 bc cf e6 16 3f 50 e7 d0 3d 78 cb 35 3e
       -0.0113069415 0.58945936 0.10200369 0.17753398
000010 64 41 ad 3e 37 29 fe 3e 74 4b 4a 3f fa b5 c5 3e
       0.33838952 0.4964082 0.7902138 0.386154
000020 b6 40 9a 3e d0 4e 81 3f cd 14 da 3e fa 85 da 3e
       0.30127496 1.0102177 0.42593995 0.4268034
000030 d5 7e a5 3e e4 42 32 3f 7e 25 38 3f 24 a8 d7 3e
       0.32323328 0.69633317 0.7193221 0.4212047
000040 88 12 f6 3d 26 d7 75 3e 00 b6 19 3f 7c 72 4b 3f
       0.12015253 0.24007854 0.60043335 0.79471564
000050 b4 a0 df 3d da 3c d3 3e 0e 2a 65 3f 1b c8 e7 3e
       0.109193236 0.41257364 0.89517295 0.45269856
000060 fc 77 d4 3e 05 70 80 3e 9b 1c ec 3e 6e 9e 47 3f
       0.4149779 0.25085464 0.46115574 0.7797612
000070 4a aa ed 3e fe 41 23 3e 9a cb 2d 3e 72 1a d6 3e
       0.46418983 0.15943143 0.16972199 0.4181705
000080 4c 5c b2 3d 1a b9 19 3f d6 40 d3 3e b6 97 9f be
       0.087090105 0.6004807 0.41260403 -0.31170434
000090 4c 43 e6 3d b3 48 47 3f 03 ff 51 3f 3e 2e 08 3f
       0.112433046 0.77845305 0.8202974 0.5319556
0000a0 fc 1e c9 3d d4 cc 17 3f 9c 75 cd 3d 4c 43 c5 3e
       0.09820363 0.5929692 0.10032198 0.38527906
0000b0 a0 02 42 3e 95 4f ec 3e b6 ec 0a 3f b5 e6 6a 3f
       0.18946314 0.46154466 0.5426744 0.9175828
0000c0 4c 36 6a bf 76 08 03 3f f0 2e e4 3d ea c5 45 3e
       -0.914891 0.51184785 0.11141765 0.1931378
0000d0 5c de 2e 3f 2d 33 6f 3f 74 4c 28 3f 22 e8 17 3f
       0.68308043 0.93437463 0.6574166 0.5933858
0000e0 e2 81 bf 3e 20 d6 d0 3e 41 dd c9 3e aa a5 39 3f
       0.3740378 0.40788364 0.39426616 0.7251841
0000f0 74 78 0a 3f fd a7 40 3f f6 76 0a 3f fe de bd 3e
       0.54090047 0.7525633 0.5408777 0.37084192

onnx::Conv_46 f4 [128, 64, 3, 3]
000000 f7 66 ea bd 88 dd aa be 56 ea 32 be d7 2c 40 3d
       -0.1144542 -0.3337214 -0.17472205 0.046917763
000010 cf 92 32 3c 25 da f7 bd 81 46 86 bd a8 e7 a7 3c
       0.01089926 -0.12102155 -0.06556416 0.020496204
000020 df a0 83 3d 55 64 be bd fb ec 3e bd fd ab c7 bd
       0.06427168 -0.092964806 -0.04661272 -0.09749601
000030 5f 28 21 be 96 71 6d bd e9 bb f0 3c b0 7d 71 3e
       -0.15738057 -0.057969652 0.029386478 0.23583102
000040 91 b4 dd bb 2f 6c ac 3e 22 0b e0 3d 3e 75 da bd
       -0.00676591 0.33676288 0.109396234 -0.106668934
000050 b4 0f 86 3d 35 15 f8 3d b0 08 fd bd e4 40 2b 3c
       0.06545964 0.1211342 -0.12355173 0.010452483
000060 28 c6 cf bd 7e d8 62 bb d8 41 6d 3e ed 40 5c be
       -0.10145217 -0.0034613903 0.23169649 -0.21509142
000070 f1 34 2c be 2c 60 9f be 05 8f df 3d 12 3c d3 bd
       -0.1681707 -0.3112806 0.10915951 -0.10314192
000080 8b d1 0c 3e 67 b9 9d be 66 a4 48 bc 5e 2f f5 bd
       0.1375181 -0.30805513 -0.012246227 -0.11971925
000090 8e 94 c7 3b 9c 30 43 3e 94 e0 24 3e f2 ee 96 3d
       0.006090707 0.19061512 0.16101295 0.07369794
0000a0 0f 98 4d 3e 45 ef 09 3e 17 21 c3 ba 97 e1 ef be
       0.20077537 0.1347018 -0.0014887181 -0.468518
0000b0 ee da 9b be e1 1f 0b bd d4 8f f3 bd 4c 18 1c be
       -0.30440468 -0.03396595 -0.118926674 -0.15243644
0000c0 a8 e1 5e be db 6b 8d 3d 2c 9d bb 3c a3 33 84 bd
       -0.21765769 0.069053374 0.022902094 -0.064551614
0000d0 e3 85 fc bd ad 8e d4 3d 00 c9 05 be a8 ea 82 3d
       -0.12330224 0.10378776 -0.13064957 0.063924134
0000e0 15 47 c3 3c ef 8f 5e bb e5 76 2f be 63 e1 5c bc
       0.023837605 -0.0033960303 -0.17135198 -0.013481471
0000f0 18 89 bc 3e 4c d3 62 3e 04 d2 da 3e b3 98 f1 bc
       0.36823344 0.22150916 0.42738354 -0.029491758
000100 ef d9 ce 3c 2d d3 32 bd bf ee 99 bd d0 83 09 3d
       0.025250403 -0.043658424 -0.0751624 0.03357297
000110 29 43 9e bd db 42 df 3c 59 10 01 be f6 08 0a be
       -0.077276535 0.027253559 -0.12603892 -0.13479981
000120 a4 93 d3 3d f5 1c 23 3e 75 4f c9 3e fb 5d 06 3e
       0.103308946 0.15929015 0.39318433 0.13121788
000130 ef cb 01 be b5 80 b0 bd 7d 89 35 be 16 3a 3f bd
       -0.1267545 -0.08618299 -0.17728229 -0.046686254
000140 05 ad 01 3d 38 b9 14 bd ba e4 d2 bc b9 d7 03 3e
       0.031659145 -0.03630945 -0.025743831 0.1287526
000150 6b a6 34 bd 2b 3d 9c be eb 2d 38 be 99 88 6b 3e
       -0.04410402 -0.30515417 -0.17986266 0.23001327
000160 b6 55 b3 3b 0c 3e 19 3e 53 73 5e bd 9e 02 32 be
       0.005472864 0.14965075 -0.0543092 -0.17383811
000170 25 5e 39 be 58 83 57 3e cb ef 13 3e a6 69 99 3e
       -0.1810232 0.21046197 0.14446943 0.29963416
000180 1d 25 41 3e 1b 14 0a be 66 31 6f be 5b 9e 2c 3e
       0.18861814 -0.13484232 -0.23358688 0.16857283
000190 86 e0 fd bc 8b 3d 3b be 4a 90 e3 bd ef ca 0a 3e
       -0.03099085 -0.18285196 -0.11111505 0.13553976
0001a0 79 2b 00 3e 7f 7d 6a 3c 6e 80 9d 3d 7f b4 75 3e
       0.12516584 0.014312147 0.07690512 0.23994635
0001b0 f4 1d c0 3d af d3 4e 3e 17 bc eb 3d 2a 14 d4 bd
       0.09380713 0.20197938 0.11510485 -0.103554085
0001c0 b7 72 36 be 84 e3 46 3c 10 d4 1b 3e c2 fe 20 bd
       -0.17817198 0.012139205 0.15217614 -0.039305456
0001d0 e0 89 53 be 74 a7 20 bb 1e 0a cf 3d 5d 0f 0b 3d
       -0.20658064 -0.0024513872 0.101093516 0.0339502
0001e0 e1 62 31 be e6 7e 2d be b4 f8 17 3e ad e6 0f b9
       -0.17322876 -0.16942939 0.14840966 -0.00013723476
0001f0 4f a3 27 3d 34 0b c8 3d 69 70 d8 3d 6b 18 a8 3e
       0.040927228 0.09767762 0.105683155 0.3283113
000200 0a 00 2c 3e 24 2b 00 bd ea 42 56 bb 38 80 e9 bd
       0.1679689 -0.031291142 -0.0032693692 -0.11401409
000210 6e 12 15 be 9d a1 a1 be 20 57 6d be 87 f6 35 bd
       -0.14557812 -0.31568614 -0.23177767 -0.04442456
000220 d0 a6 ca bc 9f 5d 92 bc 28 98 22 3c 0b 17 eb bd
       -0.024737746 -0.017866908 0.009923972 -0.114790045
000230 26 a0 ac bb aa 6d df bd af 21 f4 bd b0 5f ef bb
       -0.0052681146 -0.10909589 -0.11920487 -0.007305108
000240 4e e8 db bc 03 cb bf bd 21 ff d3 bc 61 84 1c 3e
       -0.02684417 -0.09364893 -0.02587849 0.15284874
000250 14 8d 6a 3e b3 fd 10 be b6 87 47 be a1 d7 04 be
       0.2290538 -0.14159279 -0.19485363 -0.12972881
000260 7c b5 21 be 0a 90 2b 3d ff b9 8f bd 63 78 9f bb
       -0.15791887 0.041885413 -0.07017898 -0.004866646
000270 10 33 46 bb d0 c7 e3 3c b7 a5 21 be 9d 08 5c 3e
       -0.0030242838 0.027805239 -0.15785871 0.2148766
000280 e7 fc 14 3e c6 50 8b bd 8a c6 c6 3e d2 60 7f 3c
       0.145496 -0.06802516 0.38823348 0.015587049
000290 d0 57 53 bd d2 d1 85 bd 23 4b 41 3d 43 83 a7 bb
       -0.051597416 -0.06534161 0.047190797 -0.005112083
0002a0 82 8b 44 3d db 94 cd bd 05 94 32 bd 44 72 9f bd
       0.047984608 -0.100381576 -0.043598194 -0.07785466
0002b0 7a 60 88 3d bf c9 ce 3d 31 0a 14 be 25 9a 54 bd
       0.066590264 0.10097074 -0.14457013 -0.051904816
0002c0 64 10 b6 3d 89 47 97 bc 10 bb 12 bd fe e9 5d 3e
       0.08889845 -0.018466728 -0.035822928 0.21671292
0002d0 5b c6 37 bd a4 47 87 bc 6a 08 69 3d 50 67 06 3b
       -0.0448669 -0.016513653 0.05689279 0.0020508356
0002e0 22 b5 d4 bd 4b e4 95 bd 36 4e 71 3e 9b d7 1e 3e
       -0.10386111 -0.07318934 0.23564991 0.15511934
0002f0 32 a0 1f 3e 62 88 7e 3d 5c 2e 02 be c4 cb 06 3e
       0.15588453 0.062141784 -0.12712997 0.13163668
000300 fc 82 68 3d 7c 63 2f be af 1d db 3d f0 e4 f4 3c
       0.05676554 -0.17127794 0.10699021 0.029894322
000310 c7 18 87 3d 60 80 1c 3d 91 d4 03 be 2a d0 f3 3d
       0.06596523 0.038208365 -0.12874056 0.119049385
000320 66 16 9c bd c2 ae c7 bc 42 c4 56 be 00 a8 d2 3c
       -0.0762146 -0.024375323 -0.20973304 0.025714874
000330 10 14 1d be a7 2a 72 bd f8 08 bc bd 4f 54 fa 3d
       -0.15339684 -0.059122708 -0.09181398 0.12223112
000340 a7 d8 97 3d 28 e7 6b 3d 85 b0 f8 bd 49 9d 7a bd
       0.0741437 0.057593495 -0.121430434 -0.061185155
000350 ac c0 d6 bc 99 86 01 3d 48 46 8e be ae 11 5e 3d
       -0.02621492 0.031622503 -0.27787995 0.05421608
000360 1e 3e e3 bc d3 cd 8f bd 15 51 a7 bc 8a 7c aa 3e
       -0.02773958 -0.0702168 -0.020424405 0.3329814
000370 e1 3d e9 bc b1 c9 48 3e 5a 3f f2 be da bf 8f be
       -0.028471889 0.19608189 -0.47313958 -0.2807606
000380 32 a8 17 be fd 2a a8 3d 62 9e ac 3d 95 56 76 bd
       -0.14810255 0.08211324 0.084286466 -0.060141165
000390 50 ce 17 3c 39 bd c9 3c 2f 91 d0 bb 7d b9 ab bd
       0.009265497 0.024626361 -0.0063649635 -0.083849885
0003a0 1a d3 25 be 7a c1 1e 3e 25 cc 0b 3d a6 72 3c 3c
       -0.1619381 0.15503493 0.034130234 0.011501944
0003b0 b1 df 79 3b 7e 91 08 be 03 00 66 be 8f 87 06 be
       0.0038127715 -0.13336751 -0.22460942 -0.13137649
0003c0 48 5c b6 bd ab 67 98 be 9a 5b 02 be 06 86 2c 3e
       -0.0890432 -0.29766592 -0.12730256 0.16848001
0003d0 2a e0 93 bd 9a 04 ec bd 17 40 b7 3d d3 1a 85 3e
       -0.0722049 -0.11524315 0.08947771 0.25997028
0003e0 30 ce 34 3c a8 f7 0a be 53 b1 5e 3e 95 df e5 bd
       0.011035487 -0.13571036 0.21747331 -0.112242855
0003f0 66 66 b7 3d 3b bc e5 3d 4a 14 75 bc 9e c1 04 3e
       0.08955078 0.11217543 -0.014958451 0.12964484

onnx::Conv_47 f4 [128]
000000 d5 bc 21 40 51 d1 ff 3f da 5f 43 bf 1a 62 d8 3f
       2.5271504 1.9985753 -0.7631813 1.6904938
000010 d7 83 a1 3f e2 13 ce be a2 c5 dc 3f 00 a6 e2 3f
       1.2618359 -0.40249544 1.7247813 1.7706909
000020 0a ff 88 3e c4 f8 04 3f 44 db b4 3f 51 cd ea 3f
       0.2675708 0.51942086 1.4129415 1.8343908
000030 68 4e 64 3f 80 7e c2 bb 59 ff d0 3e 82 68 27 3f
       0.8918214 -0.00593549 0.40819815 0.6539384
000040 59 ba 14 40 24 fe 2b 3f b4 97 d0 bf 41 ec 93 3e
       2.3238738 0.6718466 -1.6296296 0.28891185
000050 cc bf 18 40 34 6c 20 40 de fb 90 3f 5a 5d 0c 40
       2.3867064 2.5066042 1.1326864 2.1931977
000060 12 bf fd 3f c1 e0 8c 3f 27 85 e8 bf 29 fe e8 3f
       1.9823935 1.100609 -1.8165635 1.8202564
000070 3a 34 16 40 67 d8 1b 3f 9e f5 a5 3f f8 6e d9 3f
       2.3469377 0.6087708 1.2965581 1.698699
000080 e6 5b 0b 40 e3 08 cd 3f 9a 0d f3 3e 8e 70 59 40
       2.177484 1.6018337 0.47471315 3.3974948
000090 32 42 e2 bd 04 ca b8 3f d4 e3 df 3f 79 37 87 be
       -0.11047782 1.443665 1.7491403 -0.2640951
0000a0 c6 16 e5 be f0 ed 23 40 0f f2 4f 3f 99 76 53 40
       -0.44743937 2.5613976 0.8122873 3.3041136
0000b0 0e 47 02 40 ae 59 a9 3f 57 bd 52 bf 0d 68 97 3f
       2.0355868 1.3230493 -0.8232016 1.1828629
0000c0 c9 70 64 bf b9 2c ff 3f 5b 84 71 bf ad c8 aa bf
       -0.89234596 1.9935523 -0.94342583 -1.3342491
0000d0 2a c6 12 40 cb 28 2e 40 aa 5f 45 3e 71 7a 46 40
       2.293345 2.7212398 0.19274774 3.1012232
0000e0 19 98 10 40 38 65 67 40 d1 55 84 3e e1 11 0c 40
       2.2592833 3.615553 0.25846723 2.1885912
0000f0 5a 4c 48 40 64 09 90 bd 5e 0f ac 3e a2 79 e2 3f
       3.1296601 -0.07033041 0.33605474 1.7693369
000100 bf 68 31 bf c5 93 2c 40 9b eb 61 3e d2 93 03 be
       -0.69300455 2.6965191 0.22062533 -0.12849358
000110 75 ab 9d 3f 7c f1 e1 3f f0 d7 34 40 30 c4 37 40
       1.231795 1.765182 2.8256798 2.8713493
000120 f5 63 01 40 02 13 ea 3f bd 29 b4 3f 37 6c 08 3e
       2.021726 1.8287051 1.4075238 0.1332253
000130 b2 6c 83 3f 0e 04 4e 40 87 67 1e 40 e0 cb 25 40
       1.0267546 3.2189975 2.4750688 2.5905685
000140 b7 0a 2a 40 cb 93 c9 3f d8 cd 00 40 43 a5 46 3f
       2.656904 1.5748228 2.0125637 0.7759592
000150 5e fc da 3f 39 3d 4a 3f a5 88 9a bf 15 c0 83 3f
       1.7108266 0.7899967 -1.2072951 1.0292994
000160 fe de cf 3e ac 14 64 40 3a 66 17 3f c9 61 a3 be
       0.40599817 3.5637617 0.5914036 -0.31910542
000170 78 b5 15 40 37 12 99 3f 92 33 14 40 59 a3 6a 40
       2.339201 1.1958684 2.3156476 3.66622
000180 19 9f 1a 40 97 fd a1 be c4 89 f0 3f 15 cc 5c 40
       2.4159606 -0.31638786 1.8792043 3.4499562
000190 70 00 51 3c 64 92 f2 be 6a 70 0a 40 fe 65 c8 3f
       0.012756452 -0.47377312 2.1631112 1.5656126
0001a0 61 a1 fa 3f f2 32 e3 be 05 d6 22 c0 98 e2 cc 3f
       1.9580499 -0.44374806 -2.5443127 1.6006651
0001b0 b9 60 e6 3f 10 e0 b6 3f 38 cd 9f 3f b5 20 8a bf
       1.7998267 1.4287128 1.2484503 -1.0791231
0001c0 93 5a 5e 3e 9f 47 c0 3f 70 5e 1d 3f 45 d7 17 40
       0.21714239 1.5021857 0.61472225 2.372514
0001d0 e0 7a 0b 40 51 a4 fd 3f 97 b7 a2 3f 46 0f 0b 40
       2.1793747 1.981577 1.2712277 2.1728072
0001e0 28 cb 39 40 39 45 78 3f f9 e5 36 40 66 ae e9 3f
       2.9030247 0.96980625 2.8577864 1.8256347
0001f0 d7 ec 0d 40 c9 07 a6 3f 0f 98 e7 3f 67 cb fd 3f
       2.2175806 1.2971126 1.809328 1.9827698
