24x24train_CNN9_80e/best.pth (torch, 386055 bytes, 20 tensors)

features.0.weight f4 [32, 1, 3, 3]
-0.29619098 -0.15874952 -0.23454863 0.2547191 -0.022837756 -0.07922444 0.119256794 0.20015301
0.2695601 0.119705535 -0.23715475 -0.08641518 0.30621082 -0.30933556 0.21633464 0.24414626
-0.16047905 0.0321291 -0.100267135 -0.06630252 0.08709796 -0.12513301 -2.4051587e-05 0.074726805
-0.24914443 0.14441875 0.23934461 0.1769107 -0.15593858 -0.12411226 0.11931502 0.22154108
-0.30666634 0.11040967 -0.043697067 0.05710618 -0.3050287 0.019983198 0.28203285 0.36304328
-0.07814611 -0.31360102 -0.14458126 -0.06990143 0.07557886 0.043361325 0.18842772 0.20329687
-0.0828994 -0.115719564 0.3267406 -0.24750884 -0.15871781 -0.2796064 0.11441648 0.30715424
-0.1367945 0.3563298 0.21588935 -0.23360813 -0.008765523 -0.2516392 -0.344585 -0.2828578
0.17910926 0.15899709 -0.196814 0.059080206 0.32096156 -0.21915531 0.21092844 0.083148986
-0.27166232 -0.12490549 -0.23895581 -0.24175997 0.22661279 -0.0044497633 -0.1688933 0.1441765
0.22550055 -0.0904509 -0.030862221 -0.021105882 -0.09505977 0.23765218 0.21435466 -0.0849019
0.2489143 -0.16681494 -0.15719752 0.3773287 -0.2755843 -0.048837148 0.015582618 0.04826227
0.14323752 -0.14652652 0.06657105 -0.051484976 -0.118786834 -0.13962582 -0.081191614 -0.07193372
-0.22891906 0.1690404 -0.026292702 -0.340003 -0.11187554 0.037614565 -0.24985799 -0.093495764
0.049582005 -0.13251433 -0.30482543 0.09733443 -0.14948486 0.06237182 -0.2550401 0.009937216
-0.05665103 0.10419271 0.1701573 -0.003934272 0.302937 -0.386995 -0.24481335 0.14423731
0.14369978 -0.24937537 -0.0015740204 0.13757414 -0.06602003 0.06150064 -0.23361541 -0.35031375
-0.24358971 -0.11706602 0.26306313 0.28137445 0.05718938 0.22390987 0.08996158 -0.3199149
-0.1306479 0.23363216 -0.0414356 0.3797189 -0.15713784 -0.26350227 0.3338416 -0.19745632
-0.15905899 0.10471442 -0.19832222 -0.030775787 -0.11530724 0.089008495 -0.32147706 0.3013591
0.14481466 6.9879734e-06 0.33275872 -0.17425598 -0.24795529 -0.10900498 -0.0395707 0.28546295
-0.10731838 0.11390706 -0.35649234 0.15338661 -0.00056539616 -0.14599666 -0.17397155 0.07408116
-0.17391837 -0.23854633 0.23294903 0.15374163 0.30912107 0.21306702 0.041879743 -0.12825571
-0.112209745 -0.20495427 0.26838687 0.052658007 0.22036381 0.055314418 -0.16466345 0.3755498
-0.08059513 -0.073879935 0.043117583 -0.26592606 0.2255683 -0.12211785 -0.008025759 -0.13150157
-0.22204177 0.271765 0.07722419 -0.18563041 0.124610364 -0.1358275 0.025742149 -0.23489572
0.09874584 -0.13486774 -0.25121412 -0.12343367 0.10611857 0.22094862 0.1138723 0.22578456
0.25883466 0.16138501 -0.11726057 -0.30150443 -0.32609633 0.051074993 0.20241433 -0.029523501
0.23498881 0.26322952 0.3674487 0.32036626 0.099940024 0.19469099 0.28336638 -0.044374544
-0.15095958 0.20309305 -0.055604935 -0.20387518 -0.17254244 0.3309228 0.22987005 0.17432477
-0.3434263 -0.04033855 0.028550243 0.38198838 0.23498923 -0.072344266 -0.09404671 -0.21606913
-0.33654532 -0.0018346037 -0.18838938 0.15890436 -0.13429177 -0.07540249 0.2119746 -0.15066253
00000000: 58a6 97be 3c8f 22be 842d 70be 8b6a 823e
00000010: 3f16 bbbc 6c40 a2bd e83c f43d e9f4 4c3e
00000020: c803 8a3e 2d28 f53d b2d8 72be 71fa b0bd
00000030: aac7 9c3e 3b61 9ebe d486 5d3e 7a01 7a3e
00000040: 9f54 24be ce99 033d db58 cdbd 9ec9 87bd
00000050: 6a60 b23d de22 00be 64c2 c9b7 5e0a 993d
00000060: b81f 7fbe 82e2 133e c116 753e 1428 353e
00000070: 5dae 1fbe 922e febd 6f5b f43d aadb 623e
00000080: 5f03 9dbe 771e e23d b2fb 32bd 2be8 693d
00000090: b92c 9cbe ceb3 a33c 9c66 903e cfe0 b93e
000000a0: 110b a0bd 5090 a0be 1c0d 14be 7b28 8fbd
000000b0: 17c9 9a3d a59b 313d 32f3 403e 0e2d 503e
000000c0: 29c7 a9bd 61fe ecbd 8b4a a73e f572 7dbe
000000d0: ec86 22be 9228 8fbe 3053 ea3d 5243 9d3e
000000e0: db13 0cbe dc70 b63e 1912 5d3e f836 6fbe
000000f0: 459d 0fbc dad6 80be 726d b0be bdd2 90be
00000100: 6b68 373e 22d0 223e 9c89 49be 16fe 713d
00000110: 1355 a43e 406a 60be a0fd 573e 044a aa3d
00000120: 5317 8bbe 73ce ffbd d5b0 74be ed8f 77be
00000130: 2f0d 683e 52cf 91bb 5ef2 2cbe 01a3 133e
00000140: 9ee9 663e 523e b9bd c5d2 fcbc 3ee6 acbc
00000150: b2ae c2bd 185b 733e ca7f 5b3e 0ce1 adbd
00000160: 64e3 7e3e 89d1 2abe 63f8 20be 3a31 c13e
00000170: 6319 8dbe 7609 48bd 3d4e 7f3c a8ae 453d
00000180: dbac 123e 0c0b 16be 6756 883d e9e1 52bd
00000190: 8346 f3bd 12fa 0ebe ca47 a6bd fc51 93bd
000001a0: c269 6abe ed18 2d3e cb63 d7bc e014 aebe
000001b0: 011f e5bd bb11 1a3d c6da 7fbe b57a bfbd
000001c0: 8016 4b3d d6b1 07be 1412 9cbe 4657 c73d
000001d0: 8f12 19be 9879 7f3d 9e94 82be b4cf 223c
000001e0: e90a 68bd fd62 d53d b73d 2e3e 11eb 80bb
000001f0: 8f1a 9b3e 3524 c6be 5ab0 7abe f2b2 133e
00000200: 0926 133e 425c 7fbe 5c4f ceba 3ce0 0c3e
00000210: 8235 87bd 18e8 7b3d e138 6fbe 535c b3be
00000220: 956f 79be 4fc0 efbd 36b0 863e 5010 903e
00000230: 693f 6a3d a148 653e c73d b83d e3cb a3be
00000240: 90c8 05be 453d 6f3e 60b8 29bd 846a c23e
00000250: bee8 20be c5e9 86be 49ed aa3e fd31 4abe
00000260: 5ce0 22be 8474 d63d fb14 4bbe 811d fcbc
00000270: 3426 ecbd 164a b63d a498 a4be bd4b 9a3e
00000280: 4b4a 143e 3c7a ea36 5a5f aa3e 2970 32be
00000290: fee7 7dbe 013e dfbd e314 22bd 3328 923e
000002a0: bdc9 dbbd 1b48 e93d 2a86 b6be 6111 1d3e
000002b0: 1837 14ba 2680 15be 9925 32be ddb7 973d
000002c0: a817 32be 7d45 74be 318a 6e3e 726e 1d3e
000002d0: 1e45 9e3e 3e2e 5a3e 188a 2b3d 7755 03be
000002e0: 39ce e5bd 88df 51be 016a 893e ecaf 573d
000002f0: 0da7 613e 5f91 623d 899d 28be 1048 c03e
00000300: 0f0f a5bd 5d4e 97bd 109c 303d 7627 88be
00000310: 60fb 663e ec18 fabd 797e 03bc 59a8 06be
00000320: eb5e 63be c824 8b3e b727 9e3d e615 3ebe
00000330: b833 ff3d 5d16 0bbe 33e1 d23c 8188 70be
00000340: 423b ca3d c51a 0abe 239f 80be cbca fcbd
00000350: b154 d93d 5b40 623e e135 e93d 1134 673e
00000360: fa85 843e 1d42 253e 4f26 f0bd ca5e 9abe
00000370: 19f6 a6be 0334 513d b445 4f3e 45db f1bc
00000380: e8a0 703e 05c6 863e 3c22 bc3e 0c07 a43e
00000390: 5bad cc3d 135d 473e 6615 913e 15c2 35bd
000003a0: 2695 1abe a0f7 4f3e 00c2 63bd a8c4 50be
000003b0: f7ae 30be b76e a93e 0e63 6b3e 3182 323e
000003c0: 92d5 afbe 093a 25bd 33e2 e93c fb93 c33e
000003d0: 04a1 703e 3b29 94bd 909b c0bd 3a41 5dbe
000003e0: ab4f acbe 1677 f0ba 25e9 40be d3b7 223e
000003f0: c883 09be 9f6c 9abd df0f 593e 4747 1abe

features.0.bias f4 [32]
0.039308894 0.00077410036 -0.1652871 -0.04403447 0.28893745 -0.28295138 -0.10323549 0.32409588
0.03743561 -0.22071616 -0.2255145 0.19675048 0.1096427 0.03937154 -0.17248839 0.27392682
0.10296244 0.15523086 0.12307021 0.33134642 0.097353056 0.0985951 0.3247444 -0.34161824
0.23578386 -0.265248 0.055483114 -0.2589701 0.08687465 -0.047284678 0.061027505 0.13637236
00000000: 5d02 213d ffec 4a3a 0641 29be 7d5d 34bd
00000010: 9cef 933e 01df 90be 216d d3bd e5ef a53e
00000020: 1556 193d 6b03 62be 46ed 66be f578 493e
00000030: 5a8c e03d 0d44 213d cca0 30be 2340 8c3e
00000040: f9dd d23d d7f4 1e3e 3c0c fc3d 3da6 a93e
00000050: 0a61 c73d 3aec c93d e644 a63e 96e8 aebe
00000060: 5371 713e 96ce 87be 4342 633d bb97 84be
00000070: 56eb b13d 94ad 41bd faf7 793d 32a5 0b3e

features.1.weight f4 [32]
0.98461765 0.91250145 1.3997127 1.264037 0.8529232 1.1079384 1.311939 0.8843859
1.0103543 0.97564656 0.9151645 0.75267553 0.7736119 0.86317974 0.9802256 0.9015541
1.1297209 1.0788333 0.8837345 1.016678 0.8398324 1.1149149 1.0237448 0.9951507
0.89993227 0.78757036 0.97666156 1.1070213 0.9917833 1.09403 0.83987975 0.9203947
00000000: e70f 7c3f b299 693f c929 b33f f7cb a13f
00000010: 2d59 5a3f edd0 8d3f 9eed a73f 1d67 623f
00000020: 4a53 813f f9c3 793f 3848 6a3f 58af 403f
00000030: 6e0b 463f 59f9 5c3f 11f0 7a3f 40cc 663f
00000040: b29a 903f 3617 8a3f 6d3c 623f 8122 823f
00000050: 42ff 563f 88b5 8e3f 120a 833f 32c2 7e3f
00000060: f661 663f 369e 493f 7e06 7a3f e0b2 8d3f
00000070: 83e5 7d3f 2d09 8c3f 5c02 573f fd9e 6b3f

features.1.bias f4 [32]
-0.25098982 0.20424421 -0.17100859 -0.1413009 -0.21631077 -0.103130564 -0.1910306 0.0019714106
-0.058520798 0.110423885 -0.040777516 -0.19172956 -0.18410458 0.015288986 -0.22278367 -0.2916895
-0.10294747 -0.01765107 -0.15227652 -0.34794384 0.1393486 -0.21945705 -0.31882563 -0.1768927
0.03369818 -0.017713238 -0.04065059 -0.04664968 -0.070507936 -0.106529005 -0.20802592 -0.01860417
00000000: bd81 80be 6525 513e e01c 2fbe 2fb1 10be
00000010: 9280 5dbe 1e36 d3bd 879d 43be c832 013b
00000020: 81b3 6fbd eb25 e23d 5306 27bd c154 44be
00000030: e985 3cbe a87e 7a3c 6721 64be 5358 95be
00000040: 20d6 d2bd fa98 90bc 60ee 1bbe b225 b2be
00000050: 66b1 0e3e 59b9 60be 1d3d a3be 5c23 35be
00000060: 1a07 0a3d 5a1b 91bc 3c81 26bd bc13 3fbd
00000070: 7766 90bd e12b dabd bf04 55be c667 98bc

features.1.running_mean f4 [32]
0.012527781 -0.038439628 -0.16997069 -0.068009704 0.36530644 -0.2334846 -0.13062583 0.17167844
0.22272202 -0.33444902 -0.24244636 0.5927469 0.47293073 0.050383233 -0.045103908 0.30521968
0.10748264 0.17604217 0.2518557 0.38317207 -0.17585567 0.1043317 0.40154958 -0.34611273
0.2023537 -0.94829535 0.057684485 -0.17753826 0.08697661 -0.059618928 0.38515252 0.15265845
00000000: 5241 4d3c df72 1dbd cc0c 2ebe ac48 8bbd
00000010: 7209 bb3e 9616 6fbe c7c2 05be 79cc 2f3e
00000020: 3e11 643e e73c abbe dc43 78be 43be 173f
00000030: fa23 f23e a65e 4e3d e0be 38bd c145 9c3e
00000040: dc1f dc3d 6644 343e 3bf3 803e 212f c43e
00000050: 8213 34be dcab d53d e897 cd3e b035 b1be
00000060: cf35 4f3e 7cc3 72bf 9146 6c3d 97cc 35be
00000070: cb20 b23d fa32 74bd b632 c53e 7f52 1c3e

features.1.running_var f4 [32]
0.063550204 0.020877454 0.02020323 0.01767858 0.006979366 0.057291776 0.069932036 0.054248728
0.06007955 0.017182747 0.0020947466 0.10852191 0.08186804 0.0049463036 0.024701288 0.04252512
0.029932378 0.026509155 0.018355798 0.008833477 0.058582008 0.01487988 0.0250973 0.033268694
0.015408233 0.31861466 0.020231407 0.03934207 0.0030305637 0.012728999 0.069873564 0.009352768
00000000: 9c26 823d 3207 ab3c 3f81 a53c abd2 903c
00000010: 2ab3 e43b c8aa 6a3d 8738 8f3d ea33 5e3d
00000020: f915 763d d5c2 8c3c 0448 093b bc40 de3d
00000030: 6eaa a73d 9a14 a23b 5b5a ca3c d22e 2e3d
00000040: bf34 f53c ba29 d93c e65e 963c 4aba 103c
00000050: b0f3 6f3d bdca 733c da98 cd3c c144 083d
00000060: d072 7c3c 7621 a33e 56bc a53c 2725 213d
00000070: 6c9c 463b 4b8d 503c df19 8f3d 5a3c 193c

features.4.weight f4 [64, 32, 3, 3]
-0.018748943 0.0008311183 -0.0050716684 -0.011946695 -0.029812943 -0.01913617 0.102469735 0.07664238
0.1054343 0.07885607 -0.0035361624 0.024310833 0.028450282 -0.055962656 -0.061940722 0.08489163
0.12357213 0.07129362 0.05778483 -0.032420795 0.010726166 -0.028089674 -0.057405487 -0.0038200917
0.026636802 0.04600275 0.015980056 0.04840048 -0.044275332 0.06678382 -0.06995608 -0.055661466
-0.07612971 0.055246145 -0.00015864726 -0.012515589 0.019335039 -0.049187355 0.032422327 -0.05087529
-0.01264033 -0.022131292 0.05032645 0.028268615 0.028674938 -0.06861739 -0.039545238 0.11073275
0.05471957 -0.047008436 -0.07564581 0.05103955 0.040586177 0.08108826 0.020105956 -0.03555509
-0.049882565 -0.10243622 0.01588215 0.051318225 0.028738804 0.012461278 -0.015436875 -0.09349071
-0.06751326 0.018560473 -0.11161354 -0.013933084 -0.083335474 -0.023759881 0.05478146 -0.024886295
-0.031994067 -0.0126809385 -0.017302359 -0.050982248 -0.016873226 0.02523513 0.055758215 0.03043175
0.04315117 -0.08221435 -0.026146112 -0.041212756 -0.06436369 -0.07291317 -0.05451665 -0.012916292
-0.010835292 0.032905757 -0.017068876 -0.030859971 -0.09209409 -0.037916433 0.012106327 -0.005851575
0.07664185 0.040035788 -0.09018779 -0.08435975 -0.006344003 -0.12627214 0.007502825 -0.055068605
-0.06795652 0.10295231 0.007596798 0.08378806 -0.10026209 -0.08473592 -0.10575262 -0.088527665
-0.043428257 9.57624e-05 0.009893609 0.06201283 0.06855416 -0.010809751 0.00012503505 -0.003819549
0.019528046 0.07841255 -0.00040126673 -0.048470885 0.04080194 -0.057127118 -0.12640245 -0.12871784
-0.0008122675 0.07351455 -0.046477925 -0.0520395 0.06930094 0.085816704 0.05379778 0.0017130703
-0.05516235 0.008879089 0.015371688 -0.052992303 -0.03899075 0.07228531 0.07608236 0.070291094
-0.072408445 -0.0806244 -0.011529692 -0.09116846 -0.005204274 0.036775053 -0.016568584 -0.0012749395
0.022381864 0.06793352 -0.058473535 -0.01469743 0.08282007 -0.05961707 -0.10615346 0.038438898
0.0026458327 -0.0032305305 -0.11063137 -0.081515625 -0.1027689 -0.0014298477 0.036003184 -0.031175662
0.044081926 0.043761663 0.061879247 0.07180915 0.033222407 -0.070768856 -0.08035881 0.032360975
0.002359211 -0.047045752 0.03930815 -0.008420036 0.0076951142 -0.012582759 -0.03080768 0.029416112
0.016411172 -0.020149793 -0.023510117 -0.043158416 0.0045762127 -0.08685102 0.03398806 0.07190445
0.049259905 -0.027598126 -0.042227544 0.05486222 0.115589604 0.05836726 -0.006882549 -0.028255736
0.010528033 0.013639493 0.029120168 -0.05051641 -0.0035350518 0.09977246 -0.0039554155 -0.021549013
-0.066317216 -0.053444155 -0.038299244 0.01702682 0.033536687 0.063884534 0.012501966 0.0470886
-0.010902637 -0.020282391 0.037744988 -0.03712517 -0.0193291 0.042359423 0.068695605 -0.01622676
0.043766987 0.037326984 0.023648804 0.030820042 -0.07474215 -0.10100663 -0.06391889 -0.03878618
0.018420795 -0.050934102 0.00427412 -0.038387574 0.023226006 0.029196762 0.0018262856 -0.007516
0.018632598 -0.0056416956 -0.040253624 0.04666563 0.062119823 0.060209967 -0.031079968 -0.030525496
-0.02545218 0.119605765 0.08476626 0.022343598 -0.03533661 -0.08785967 -0.005708469 -0.14470126
00000000: 6297 99bc 68df 593a 3d30 a6bb 12bc 43bc
00000010: 463a f4bc 75c3 9cbc a7db d13d aef6 9c3d
00000020: f0ed d73d 4b7f a13d f6be 67bb 8327 c73c
00000030: 9110 e93c 1939 65bd 8eb5 7dbd aadb ad3d
00000040: 6313 fd3d 6402 923d c9af 6c3d abcb 04bd
00000050: cdbc 2f3c 511c e6bc 0422 6bbd 815a 7abb
00000060: 6c35 da3c 616d 3c3d 9be8 823c 953f 463d
00000070: 0d5a 35bd f5c5 883d 2245 8fbd 47fd 63bd
00000080: e5e9 9bbd c849 623d 8d5a 26b9 2f0e 4dbc
00000090: 8464 9e3c ae78 49bd 46cd 043d 9c62 50bd
000000a0: 6319 4fbc af4c b5bc 1c23 4e3d 9593 e73c
000000b0: b4e7 ea3c 4687 8cbd 30fa 21bd dac7 e23d
000000c0: a121 603d eb8b 40bd 31ec 9abd d90e 513d
000000d0: b13d 263d 9a11 a63d 3fb5 a43c 37a2 11bd
000000e0: a951 4cbd 15ca d1bd 481b 823c 0f33 523d
000000f0: a46d eb3c 632a 4c3c f2ea 7cbc 0f78 bfbd
00000100: 6444 8abd 220c 983c a495 e4bd 9747 64bc
00000110: caab aabd 15a4 c2bc 8662 603d 58de cbbc
00000120: 360c 03bd b6c3 4fbc adbd 8dbc c3d2 50bd
00000130: b839 8abc e7b9 ce3c ba62 643d 014c f93c
00000140: 48bf 303d ff5f a8bd 5f30 d6bc b5ce 28bd
00000150: 1cd1 83bd 8053 95bd da4c 5fbd db9e 53bc
00000160: 8286 31bc 30c8 063d 07d4 8bbc 0dce fcbc
00000170: d49b bcbd 434e 1bbd 9e59 463c 92be bfbb
00000180: 67f6 9c3d 91fc 233d 60b4 b8bd cec4 acbd
00000190: 5be1 cfbb 7c4d 01be 42da f53b 9e8f 61bd
000001a0: ca2c 8bbd a9d8 d23d 8fee f83b 1399 ab3d
000001b0: 3656 cdbd 078a adbd d494 d8bd fe4d b5bd
000001c0: d4e1 31bd 0cd4 c838 ce18 223c 2a01 7e3d
000001d0: 2066 8c3d 621b 31bc d71b 0339 6651 7abb
000001e0: 48f9 9f3c c296 a03d 1c61 d2b9 6889 46bd
000001f0: ef1f 273d 20fe 69bd a56f 01be 9cce 03be
00000200: 59ee 54ba cc8e 963d a35f 3ebd 5f27 55bd
00000210: a7ed 8d3d abc0 af3d 105b 5c3d 1a89 e03a
00000220: ebf1 61bd 9979 113c 88d9 7b3c 750e 59bd
00000230: c4b4 1fbd 520a 943d 12d1 9b3d c7f4 8f3d
00000240: e14a 94bd 681e a5bd 09e7 3cbc 88b6 babd
00000250: 9d88 aabb 70a1 163d d7ba 87bc df1b a7ba
00000260: 2c5a b73c bb20 8b3d f281 6fbd 7dcd 70bc
00000270: 929d a93d 0731 74bd fc66 d9bd 1b72 1d3d
00000280: b565 2d3b 4fb7 53bb b392 e2bd aaf1 a6bd
00000290: 8078 d2bd ba69 bbba 1378 133d 1a64 ffbc
000002a0: 408f 343d 6e3f 333d 1875 7d3d ad10 933d
000002b0: 3814 083d 43ef 90bd 2993 a4bd f18c 043d
000002c0: fe9c 1a3b 0cb3 40bd 9501 213d 31f4 09bc
000002d0: 4c27 fc3b eb27 4ebc 6360 fcbc 0ffa f03c
000002e0: b970 863c 2e11 a5bc 4a98 c0bc e1c6 30bd
000002f0: 0ef4 953b f3de b1bd 1037 0b3d a442 933d
00000300: c1c4 493d 7715 e2bc caf6 2cbd 35b7 603d
00000310: 3eba ec3d 8212 6f3d 0187 e1bb 9378 e7bc
00000320: c57d 2c3c 2e78 5f3c 6b8d ee3c 4cea 4ebd
00000330: 54ac 67bb 8155 cc3d 6e9c 81bb 8e87 b0bc
00000340: 52d1 87bd 42e8 5abd abdf 1cbd d47b 8b3c
00000350: c45d 093d e5d5 823d 0cd5 4c3c fadf 403d
00000360: f9a0 32bc 4227 a6bc 7d9a 1a3d 9010 18bd
00000370: 1058 9ebc 1381 2d3d 48b0 8c3d fbed 84bc
00000380: 0345 333d 2ee4 183d 23bb c13c 507a fc3c
00000390: 6a12 99bd 90dc cebd e8e7 82bd 42de 1ebd
000003a0: 35e7 963c 47a0 50bd eb0d 8c3b 4a3c 1dbd
000003b0: 7744 be3c 0c2e ef3c fa5f ef3a c748 f6bb
000003c0: 64a3 983c f9dd b8bb fce0 24bd 7624 3f3d
000003d0: 5b71 7e3d ba9e 763d 6b9b febc 9b10 fabc
000003e0: 1781 d0bc def3 f43d ef99 ad3d ec09 b73c
000003f0: 1fbd 10bd c5ef b3bd 1c0e bbbb 912c 14be

features.4.bias f4 [64]
-0.009284661 0.016768044 0.06567951 0.038802784 -0.038042095 0.062801905 0.0907975 0.01732283
-0.047052924 -0.047454823 -0.038659777 -0.0031361622 0.0059604174 -0.027570046 0.0075061372 0.013525708
-0.0031159215 -0.043535825 0.025096206 -0.08671982 0.033932764 -0.0403087 -0.018682918 0.034031063
0.06383019 -0.02454288 -0.0024146528 0.035484668 0.036596242 -0.0152957095 0.037443 0.02183044
-0.07598818 0.020568017 -0.022419242 0.06211868 -0.04877063 0.10331089 -0.076614216 0.015551107
0.057025626 0.017545274 -0.00788469 0.084429 -0.027522584 0.08693399 -0.035694383 0.16064264
-0.02766071 -0.03152361 -0.017573904 -0.09566833 -0.03019172 0.025790824 0.0059721028 0.014439306
0.07043875 0.036659475 -0.046798795 0.03900545 0.06497021 -0.041034315 -0.009406081 -0.08421568
00000000: b11e 18bc 235d 893c fb82 863d abef 1e3d
00000010: 07d2 1bbd 499e 803d 0af4 b93d 9ce8 8d3c
00000020: 91ba 40bd fd5f 42bd b759 1ebd 1288 4dbb
00000030: 9b4f c33b 94da e1bc 0bf6 f53b ee9a 5d3c
00000040: 7d34 4cbb 9f52 32bd 8f96 cd3c 299a b1bd
00000050: 15fd 0a3d bc1a 25bd eb0c 99bc 2864 0b3d
00000060: 67b9 823d 260e c9bc 273f 1ebb 5f58 113d
00000070: f1e5 153d db9a 7abc d55d 193d c0d5 b23c
00000080: b19f 9bbd 427e a83c 8fa8 b7bc 2870 7e3d
00000090: b6c3 47bd a994 d33d eae7 9cbd 12ca 7e3c
000000a0: b493 693d 1bbb 8f3c c92e 01bc 1de9 ac3d
000000b0: 0b77 e1bc 730a b23d 4634 12bd 817f 243e
000000c0: b798 e2bc e71e 01bd 26f7 8fbc c2ed c3bd
000000d0: a054 f7bc 4747 d33c a1b1 c33b d792 6c3c
000000e0: 3142 903d 3f28 163d 18b0 3fbd 2ec4 1f3d
000000f0: 1a0f 853d 9913 28bd f71b 1abc 4579 acbd

features.5.weight f4 [64]
0.8338541 0.9884489 0.88586384 0.931696 0.91042095 0.8957673 0.9325163 0.87385726
1.046508 0.8877467 1.0093821 1.0353268 1.0210613 0.81610227 0.8486743 0.8517782
0.86752266 1.0078319 0.92868984 0.8032427 0.86967546 0.964174 0.9935698 0.85247856
1.0542266 0.9215527 0.83416796 0.90955675 0.9162455 0.8700742 0.980671 0.9752063
0.7760766 0.89428055 0.92822045 0.81648993 0.8394658 0.7975092 0.9410908 0.82391137
0.9106229 1.0468897 0.85302514 0.91659766 0.9624594 0.9368005 0.88864464 1.0235721
0.88487566 0.8982597 1.0105938 0.878011 1.0046384 0.89928573 0.92819464 0.98544246
0.881125 0.9376646 0.85567534 0.9838659 0.98494065 0.990896 0.82304907 0.8358348
00000000: 7677 553f fd0a 7d3f f9c7 623f a183 6e3f
00000010: 5911 693f 0151 653f 63b9 6e3f 1cb5 5f3f
00000020: f9f3 853f 5e43 633f 6f33 813f 9785 843f
00000030: 23b2 823f 14ec 503f b842 593f 230e 5a3f
00000040: f715 5e3f a300 813f 9ebe 6d3f 50a1 4d3f
00000050: 0da3 5e3f 1bd4 763f 975a 7e3f 093c 5a3f
00000060: e6f0 863f e1ea 6b3f 088c 553f b6d8 683f
00000070: 118f 6a3f 2fbd 5e3f 410d 7b3f 1fa7 793f
00000080: f5ac 463f 92ef 643f db9f 6d3f 7c05 513f
00000090: 3be7 563f 9029 4c3f 54eb 703f dbeb 523f
000000a0: 951e 693f 7b00 863f db5f 5a3f 25a6 6a3f
000000b0: bd63 763f 28d2 6f3f 377e 633f 6904 833f
000000c0: 3687 623f 59f4 653f 235b 813f 54c5 603f
000000d0: fe97 803f 9737 663f 2a9e 6d3f f545 7c3f
000000e0: 6891 613f ca0a 703f 8a0d 5b3f a3de 7b3f
000000f0: 1225 7c3f 5cab 7d3f 58b3 523f 45f9 553f

features.5.bias f4 [64]
-0.45262185 -0.49043578 -0.54083693 -0.28954485 -0.43920153 -0.43059132 -0.4890076 -0.41152894
-0.6434596 -0.3369513 -0.40303174 -0.5477262 -0.40058455 -0.33134535 -0.4435452 -0.5212025
-0.5135212 -0.4589211 -0.38829914 -0.4448674 -0.40781823 -0.56767297 -0.39527023 -0.36888203
-0.5207703 -0.48853227 -0.4284174 -0.32294288 -0.44071072 -0.41922328 -0.4325119 -0.45558608
-0.37668687 -0.48428926 -0.7324582 -0.40694204 -0.41133216 -0.45478565 -0.5380805 -0.35328797
-0.4697784 -0.41786894 -0.38621476 -0.48673123 -0.6185089 -0.43084416 -0.39881766 -0.41873497
-0.45074463 -0.54478824 -0.515337 -0.46341172 -0.40555355 -0.59972376 -0.3311567 -0.44330963
-0.5613188 -0.54585516 -0.4023141 -0.37447158 -0.32986787 -0.4423067 -0.3164819 -0.34230697
00000000: 0dbe e7be 661a fbbe 4a74 0abf 393f 94be
00000010: 06df e0be 7776 dcbe 345f fabe ecb3 d2be
00000020: c5b9 24bf e184 acbe 2d5a cebe c937 0cbf
00000030: 6b19 cdbe 19a6 a9be 5b18 e3be 876d 05bf
00000040: 2076 03bf b5f7 eabe 25cf c6be a9c5 e3be
00000050: 8dcd d0be 0453 11bf dc60 cabe 1bde bcbe
00000060: 3451 05bf e720 fabe 8759 dbbe c558 a5be
00000070: d6a4 e1be 6fa4 d6be 3372 ddbe 9442 e9be
00000080: 1add c0be c3f4 f7be 6182 3bbf b55a d0be
00000090: 219a d2be aad9 e8be a5bf 09bf 29e2 b4be
000000a0: cb86 f0be ebf2 d5be f1bd c5be d634 f9be
000000b0: 9956 1ebf 9b97 dcbe d431 ccbe 6e64 d6be
000000c0: 00c8 e6be 3e77 0bbf 20ed 03bf 4d44 edbe
000000d0: b7a4 cfbe 7f87 19bf 5f8d a9be 7bf9 e2be
000000e0: 97b2 0fbf 2abd 0bbf 1dfc cdbe bdba bfbe
000000f0: 71e4 a8be 0676 e2be ea09 a2be dc42 afbe

features.5.running_mean f4 [64]
-0.5461707 -1.134355 -0.76199466 -0.544841 -0.9082134 -0.8874493 -1.1011649 -0.98631305
-0.7382807 -1.4504169 -0.7673404 -0.93405104 -0.5770926 -1.2667685 -1.3141805 -1.0525097
-0.75825334 -0.5835115 -0.827809 -1.2520758 -0.4845741 -0.77860737 -1.6010345 -1.0096387
-0.7556958 -0.73551166 -0.8064294 -1.0441775 -0.78187925 -0.7697603 -0.77332824 -0.8527627
-0.706106 -0.9035287 -0.86204493 -0.029472334 -0.65713495 -1.0883067 -1.530672 -0.80685645
-0.5243776 -1.1474371 -0.6191071 -0.98142445 -0.5878851 -0.87815785 -0.91970146 -1.3779179
0.51188767 -1.2590516 -0.75752676 -0.88913745 -1.05692 -1.5228571 -0.7220801 -1.0057893
-1.0071374 -0.97516793 -1.1824174 -1.1007714 -0.9212662 -1.0933188 -1.2029682 -0.74613625
00000000: d8d1 0bbf 8b32 91bf 1512 43bf b37a 0bbf
00000010: ac80 68bf e12f 63bf f9f2 8cbf 037f 7cbf
00000020: f7ff 3cbf 43a7 b9bf 6c70 44bf f81d 6fbf
00000030: 57bc 13bf 7825 a2bf 1137 a8bf a3b8 86bf
00000040: e41c 42bf 0261 15bf 4aeb 53bf 0544 a0bf
00000050: 191a f8be d052 47bf b3ee ccbf d73b 81bf
00000060: 4875 41bf 7e4a 3cbf 2872 4ebf 9ca7 85bf
00000070: 3d29 48bf 030f 45bf d7f8 45bf a84e 5abf
00000080: 5dc3 34bf a84d 67bf faae 5cbf f76f f1bc
00000090: ff39 28bf a24d 8bbf 0fed c3bf 258e 4ebf
000000a0: 9c3d 06bf 38df 92bf ce7d 1ebf a23e 7bbf
000000b0: a37f 16bf f4ce 60bf 8e71 6bbf 9d5f b0bf
000000c0: 120b 033f 9a28 a1bf 46ed 41bf 839e 63bf
000000d0: 2849 87bf fbec c2bf 3eda 38bf b4bd 80bf
000000e0: e1e9 80bf 9ba4 79bf 7459 97bf 14e6 8cbf
000000f0: 1ad8 6bbf dff1 8bbf ddfa 99bf c902 3fbf

features.5.running_var f4 [64]
1.0290653 1.1101581 1.3008965 1.3553786 1.037976 0.84314656 0.7549894 1.2088408
0.58627367 0.85471386 0.7872285 0.9780933 0.6764796 0.9683935 0.93040943 0.9283557
1.068755 0.6061269 0.6417686 0.5702324 0.7607071 0.52734643 1.4843012 1.1727055
0.85245275 0.78522193 0.568413 0.7930708 0.6867948 1.2869092 1.7430524 0.9528394
1.1118097 0.5803629 0.46324018 0.6165702 0.9507267 0.5938048 1.0148009 0.58587134
0.8688761 1.455708 1.1483841 1.2551794 0.44555423 1.0264056 0.69619066 1.3888118
1.0580623 1.0889596 1.4235188 1.1259555 0.89776367 0.82411736 0.4672788 0.94048196
1.0304153 0.9895656 1.4880619 1.0399057 1.2444385 0.7615097 1.3128414 0.60184544
00000000: 69b8 833f a919 8e3f c783 a63f 0c7d ad3f
00000010: 66dc 843f 74d8 573f fc46 413f 4cbb 9a3f
00000020: 0816 163f 87ce 5a3f cf87 493f 5364 7a3f
00000030: c42d 2d3f a3e8 773f 502f 6e3f b8a8 6d3f
00000040: f7cc 883f 222b 1b3f f24a 243f c0fa 113f
00000050: b3bd 423f 2d00 073f 95fd bd3f 371b 963f
00000060: 583a 5a3f 4e04 493f 8483 113f b006 4b3f
00000070: c9d1 2f3f 71b9 a43f 571c df3f 48ed 733f
00000080: c84f 8e3f aa92 143f d12d ed3e 8bd7 1d3f
00000090: d362 733f 9703 183f ffe4 813f aafb 153f
000000a0: aa6e 5e3f a454 ba3f 40fe 923f b8a9 a03f
000000b0: af1f e43e 4261 833f 8d39 323f 96c4 b13f
000000c0: 966e 873f 0763 8b3f dd35 b63f 4f1f 903f
000000d0: d7d3 653f 5bf9 523f 2b3f ef3e 6dc3 703f
000000e0: a6e4 833f 2c54 7d3f d078 be3f a11b 853f
000000f0: c349 9f3f 4df2 423f 300b a83f 8b12 1a3f

features.8.weight f4 [128, 64, 3, 3]
-0.043960374 -0.12817806 -0.06710847 0.018020503 0.0041862642 -0.046482805 -0.025182344 0.007872326
0.024685917 -0.035706576 -0.017903341 -0.037446953 -0.06044783 -0.022265391 0.011286965 0.09057964
-0.0025986983 0.12934625 0.042017672 -0.040970154 0.025142198 0.046526074 -0.047454614 0.004014663
-0.038966462 -0.0013294751 0.08899161 -0.082613826 -0.06459218 -0.11955884 0.04192675 -0.03961547
0.052818913 -0.11831998 -0.0047036167 -0.04598261 0.0023393615 0.073212795 0.061842985 0.028306423
0.077115215 0.05173721 -0.0005717973 -0.17995168 -0.116917886 -0.01304588 -0.04567819 -0.058548857
-0.08359949 0.026522506 0.008796397 -0.024793437 -0.047358792 0.03986353 -0.0501808 0.024552431
0.009155715 -0.0013043712 -0.06581407 -0.005178058 0.14143369 0.08507879 0.16415247 -0.011327402
0.009698352 -0.016768634 -0.028868904 0.012894942 -0.029680915 0.010467738 -0.048409916 -0.05177486
0.039679624 0.061181277 0.151017 0.050399087 -0.04868476 -0.033101767 -0.068091825 -0.017931584
0.012159867 -0.013945988 -0.009887871 0.049452204 -0.016939782 -0.117205754 -0.069082916 0.08834511
0.002102056 0.057478912 -0.02085946 -0.06676896 -0.06952866 0.080835715 0.05548883 0.11508559
0.07244578 -0.051791187 -0.089717686 0.06474663 -0.011903184 -0.070231065 -0.04267785 0.05205906
0.048074573 0.00549711 0.029538257 0.09216028 0.036030103 0.07757766 0.044210277 -0.03977378
-0.068433546 0.004662511 0.05844888 -0.015096716 -0.07934494 -0.000941546 0.03882871 0.013039831
-0.066534914 -0.06507563 0.057002224 -5.271009e-05 0.015719617 0.037516706 0.040591527 0.12610011
0.064514674 -0.012018521 -0.0012557223 -0.04379133 -0.055914663 -0.12125095 -0.08902279 -0.017062897
-0.009501447 -0.0068624476 0.003811669 -0.044089366 -0.0020234145 -0.041902315 -0.045785043 -0.0028057972
-0.010310497 -0.03596934 -0.009939592 0.058707215 0.08797659 -0.054383952 -0.074840754 -0.04982715
-0.060654588 0.016087644 -0.026954833 -0.0018692156 -0.0011615881 0.0106796315 -0.060631484 0.08253132
0.055883124 -0.026127579 0.14911544 0.005986783 -0.019817898 -0.025096864 0.018125372 -0.0019634848
0.018430265 -0.03855526 -0.0167455 -0.029902967 0.025576457 0.03878155 -0.05552751 -0.019935966
0.03414474 -0.0070928303 -0.013759122 0.08323662 -0.017232794 -0.0063426797 0.021851782 0.00078769936
-0.039891705 -0.028111076 0.09051007 0.059579324 0.059873223 0.023867853 -0.048828974 0.050559938
0.021802908 -0.06578563 0.04109355 0.011482021 0.025336388 0.014675338 -0.049447577 0.045725323
-0.029273037 -0.009362245 -0.08055574 0.0098767495 -0.05891774 -0.022708265 -0.03526456 0.046947386
0.028477632 0.022120913 -0.046639852 -0.023500424 -0.010068811 0.012145793 -0.10673009 0.020823693
-0.010654413 -0.02696936 -0.007844749 0.12789384 -0.010935683 0.07531251 -0.18172677 -0.1078365
-0.056884266 0.03153863 0.03237334 -0.023099441 0.0035587572 0.009458666 -0.0024446999 -0.032205652
-0.062198322 0.059546907 0.01310898 0.0044177473 0.0014644361 -0.05122473 -0.086269565 -0.050460007
-0.034200337 -0.114329614 -0.04889526 0.06471098 -0.027732966 -0.0442634 0.034367226 0.09985121
0.0042385873 -0.05212459 0.083528675 -0.043111023 0.034395292 0.043085124 -0.0057453467 0.0497949
00000000: cb0f 34bd 1c41 03be 2a70 89bd bc9f 933c
00000010: ee2c 893b c164 3ebd 344b cebc eefa 003c
00000020: 1f3a ca3c 0f41 12bd 07aa 92bc fa61 19bd
00000030: 2598 77bd e965 b6bc f6ec 383c d181 b93d
00000040: ec4e 2abb 5873 043e b91a 2c3d 52d0 27bd
00000050: 03f7 cd3c 2092 3e3d c55f 42bd 6f8d 833b
00000060: 4c9b 1fbd c841 aeba 3c41 b63d 7031 a9bd
00000070: e848 84bd 44db f4bd 62bb 2b3d d543 22bd
00000080: a558 583d bf51 f2bd cc20 9abb 4358 3cbd
00000090: f94f 193b 97f0 953d 124f 7d3d dfe2 e73c
000000a0: 95ee 9d3d 66ea 533d abe4 15ba 4145 38be
000000b0: a572 efbd 63be 55bc 0e19 3bbd edd0 6fbd
000000c0: 3636 abbd ba45 d93c c31e 103c 9b1b cbbc
000000d0: 4bfb 41bd f147 233d 628a 4dbd 2e22 c93c
000000e0: da01 163c 6ff7 aaba 87c9 86bd b3ac a9bb
000000f0: fed3 103e ca3d ae3d 9617 283e 9196 39bc
00000100: d6e5 1e3c 605e 89bc 7b7e ecbc 4f45 533c
00000110: 6425 f3bc e080 2b3c 7a49 46bd e011 54bd
00000120: 1a87 223d 3899 7a3d 33a4 1a3e 466f 4e3d
00000130: ac69 47bd b895 07bd ba73 8bbd 42e5 92bc
00000140: 2e3a 473c b77d 64bc bd00 22bc 658e 4a3d
00000150: 4cc5 8abc 9209 f0bd 587b 8dbd 48ee b43d
00000160: a6c2 093b 026f 6b3d 75e1 aabc 2abe 88bd
00000170: 0b65 8ebd 328d a53d 4148 633d feb1 eb3d
00000180: 745e 943d ff22 54bd e8bd b7bd e299 843d
00000190: 9205 43bc 4ed5 8fbd f8ce 2ebd e23b 553d
000001a0: d8e9 443d 1a21 b43b 37fa f13c 87be bc3d
000001b0: 4d94 133d 09e1 9e3d d615 353d d5e9 22bd
000001c0: e326 8cbd fac7 983b 1868 6f3d 3758 77bc
000001d0: 9a7f a2bd 15d2 76ba da0a 1f3d 04a5 553c
000001e0: 7543 88bd 5f46 85bd 2a7b 693d 0715 5db8
000001f0: 6dc6 803c 1eab 193d 4d43 263d 6320 013e
00000200: 4520 843d 55e9 44bc 0c97 a4ba 8a5e 33bd
00000210: c606 65bd 6b52 f8bd 9551 b6bd 7dc7 8bbc
00000220: f5ab 1bbc 62de e0bb 32cd 793b 0d97 34bd
00000230: 439b 04bb c3a1 2bbd 1989 3bbd 77e1 37bb
00000240: 5ced 28bc 9654 13bd acd9 22bc fa76 703d
00000250: 122d b43d b5c1 5ebd 1c46 99bd 8e17 4cbd
00000260: f270 78bd 3cca 833c 62d0 dcbc 7800 f5ba
00000270: 6e40 98ba 9ff9 2e3c b858 78bd 2e06 a93d
00000280: b4e5 643d 8109 d6bc b8b1 183e c72c c43b
00000290: 2559 a2bc f097 cdbc a97b 943c cfad 00bb
000002a0: 11fb 963c 1fec 1dbd dc2d 89bc 11f7 f4bc
000002b0: b885 d13c 67d9 1e3d d070 63bd c050 a3bc
000002c0: 5bdb 0b3d f96a e8bb f16d 61bc f677 aa3d
000002d0: ca2b 8dbc 41d6 cfbb 8202 b33c 9c7d 4e3a
000002e0: 7c65 23bd 3349 e6bc 585d b93d 7309 743d
000002f0: a03d 753d 8486 c33c e400 48bd f017 4f3d
00000300: 039c b23c 9eba 86bd b651 283d 161f 3c3c
00000310: 428e cf3c d470 703c 8b89 4abd 7a4a 3b3d
00000320: 02ce efbc 1a64 19bc 68fa a4bd 17d2 213c
00000330: ba53 71bd af06 babc 9271 10bd e74b 403d
00000340: ec49 e93c eb36 b53c 6e09 3fbd f683 c0bc
00000350: a7f7 24bc 26ff 463c 4e95 dabd 7396 aa3c
00000360: d98f 2ebc d9ee dcbc 4387 00bc 9af6 023e
00000370: 942b 33bc 723d 9a3d 9516 3abe 62d9 dcbd
00000380: 7aff 68bd a72e 013d e899 043d 0a3b bdbc
00000390: 0a3a 693b 85f8 1a3c 4237 20bb 13ea 03bd
000003a0: abc3 7ebd 75e7 733d 0cc7 563c c0c2 903b
000003b0: 52f2 bf3a 06d1 51bd 19ae b0bd 27af 4ebd
000003c0: a715 0cbd a525 eabd 6546 48bd 3187 843d
000003d0: 3f30 e3bc 8a4d 35bd a6c4 0c3d cb7e cc3d
000003e0: d9e3 8a3b 9880 55bd 1511 ab3d 2f95 30bd
000003f0: 14e2 0c3d 077a 303d 7643 bcbb bdf5 4b3d

features.8.bias f4 [128]
0.030988945 -0.00034204475 -0.008283444 0.021472743 -0.013127465 -0.04636623 -0.017844848 -0.020539075
0.0012202979 0.010560445 0.0510272 0.026349247 -0.036798414 0.03196061 -0.0005704921 0.021590762
0.01368447 -0.017611686 0.013658965 0.006637951 0.01350429 -0.02167743 -0.010056773 0.0035998411
-0.0062261983 -0.03540508 0.027230198 0.018195504 -0.01985586 -0.030232899 -0.031219048 -0.0043844455
-0.026930328 -0.026226718 -0.034066636 0.010974275 -0.041564364 0.023565492 0.027030962 -0.014488337
0.032478552 0.017716397 -0.04209461 -0.03683505 0.03202282 0.007857517 0.018111667 0.0010138968
-0.019875057 -0.028756054 0.01845158 -0.04034322 -0.01953364 0.057805203 -0.046208616 -0.013268548
0.0130803455 0.009122631 0.045612115 -0.028888555 -0.031674694 -0.01293439 0.03003135 0.04730433
-0.0424764 -0.03532824 -0.030251503 -0.017800942 -0.016623437 0.019836266 -0.017192587 -0.02752629
0.05108192 -0.015806384 0.002275301 0.0096501 -0.02972269 0.0011200598 -0.004468815 0.019941103
0.031053916 -0.013768852 0.012839193 -0.008229828 -0.033454146 -0.012103139 0.053892106 -0.04371368
0.024773315 0.0061216927 0.008102431 -0.05453506 -0.010768466 -0.013319756 -0.026815915 0.0032200103
-0.029381277 -0.021372633 0.019541435 -0.026953805 0.014570325 0.012871307 0.028650362 0.010940498
-0.036927998 -0.01298001 0.029289043 -0.024519648 -0.046882093 -0.029875059 0.028091967 0.04149742
-0.029702293 -0.034859423 -0.043697692 0.010916867 0.02262706 -0.029303806 -0.01072138 -0.030979449
0.0074801487 0.03073659 0.042461403 -0.0048337528 -0.009409675 0.022128271 0.015005358 -0.030636579
00000000: 87dc fd3c 7854 b3b9 48b7 07bc 9be7 af3c
00000010: 9414 57bc 84ea 3dbd 5c2f 92bc 9041 a8bc
00000020: 67f2 9f3a b705 2d3c e601 513d 60da d73c
00000030: efb9 16bd 21e9 023d 148d 15ba 1cdf b03c
00000040: d434 603c 6246 90bc dac9 5f3c 2b83 d93b
00000050: 1941 5d3c de94 b1bc 2ac5 24bc 50eb 6b3b
00000060: 2305 ccbb eb04 11bd dd11 df3c bd0e 953c
00000070: c2a8 a2bc fcaa f7bc 17bf ffbc 65ab 8fbb
00000080: fe9c dcbc 6ad9 d6bc 7589 0bbd 72cd 333c
00000090: 653f 2abd 6b0c c13c 0970 dd3c 7d60 6dbc
000000a0: 3b08 053d fa21 913c 666b 2cbd 59e0 16bd
000000b0: 5c2a 033d d1bc 003c eb5e 943c bbe4 843a
000000c0: 04d1 a2bc d191 ebbc c527 973c ef3e 25bd
000000d0: 0305 a0bc 26c5 6c3d 3f45 3dbd 5364 59bc
000000e0: f24e 563c 1677 153c c5d3 3a3d b1a7 ecbc
000000f0: 53bd 01bd c4ea 53bc 4e04 f63c 2fc2 413d
00000100: bcfb 2dbd 58b4 10bd 00d2 f7bc 48d3 91bc
00000110: e02d 88bc aa7f a23c 78d7 8cbc d07e e1bc
00000120: 463b 513d 647c 81bc 371d 153b 741b 1e3c
00000130: 007d f3bc f8ce 923a 236f 92bb 865b a33c
00000140: c864 fe3c c096 61bc 7b5b 523c 67d6 06bc
00000150: 3707 09bd 3f4c 46bc f8bd 5c3d 1e0d 33bd
00000160: 68f1 ca3c 7b98 c83b 0fc0 043c 2860 5fbd
00000170: 386e 30bc 1b3b 5abc 0dad dbbc cf06 533b
00000180: 01b1 f0bc a915 afbc 5c15 a03c 3ace dcbc
00000190: 5fb8 6e3c 2de2 523c 2ab4 ea3c c63f 333c
000001a0: d041 17bd 1caa 54bc 93ef ef3c 6edd c8bc
000001b0: 7007 40bd 8abc f4bc 2021 e63c 33f9 293d
000001c0: 3952 f3bc c1c8 0ebd 5afc 32bd a9dc 323c
000001d0: 625c b93c 890e f0bc baa8 2fbc 9dc8 fdbc
000001e0: 091c f53b 4dcb fb3c 02ec 2d3d 7564 9ebb
000001f0: 0a2b 1abc 5946 b53c 08d9 753c 90f9 fabc

features.9.weight f4 [128]
1.5729822 1.5780662 1.5975677 1.3728238 1.4110138 1.5187066 1.3944767 1.473585
1.5097473 1.4718533 1.4680828 1.4551814 1.4993291 1.6170077 1.5680506 1.5055473
1.572451 1.4338274 1.4752856 1.4774343 1.4571643 1.5129529 1.4827651 1.531384
1.5095237 1.5489658 1.4958549 1.530015 1.4453295 1.3994584 1.493503 1.4896935
1.4549159 1.5359995 1.4808044 1.554612 1.5661485 1.481794 1.539996 1.5452012
1.506458 1.5391176 1.4485203 1.5124228 1.5264504 1.4005631 1.5924859 1.5248334
1.5975056 1.4405524 1.5302552 1.5570762 1.5385071 1.4633136 1.5412841 1.4942366
1.5392324 1.5731776 1.5489532 1.5128245 1.4844902 1.4759331 1.5864769 1.6370564
1.4370227 1.4344527 1.59739 1.5847206 1.5030614 1.470549 1.5417407 1.5783346
1.4904841 1.5794439 1.5506952 1.4519277 1.5470451 1.5282836 1.4920579 1.4441469
1.5815812 1.4167681 1.5021193 1.4871265 1.4616841 1.5072984 1.4127245 1.4742246
1.4463999 1.5788006 1.5512471 1.4199325 1.4949887 1.5176772 1.4592717 1.5042386
1.4624572 1.5221766 1.492691 1.4387708 1.5933032 1.5660193 1.5944291 1.4309555
1.5910435 1.5407872 1.4130584 1.5345496 1.5387812 1.4780186 1.43331 1.5573875
1.487468 1.4919795 1.5120914 1.4772866 1.5139252 1.6831338 1.6177592 1.4717087
1.5174139 1.4792528 1.5509219 1.4032125 1.4960887 1.57845 1.538254 1.4780098
00000000: 7b57 c93f 13fe c93f 197d cc3f b1b8 af3f
00000010: 1a9c b43f fa64 c23f 367e b23f 6f9e bc3f
00000020: 663f c13f b065 bc3f 23ea bb3f 6243 ba3f
00000030: 04ea bf3f 1cfa ce3f e2b5 c83f c6b5 c03f
00000040: 1346 c93f a887 b73f 29d6 bc3f 911c bd3f
00000050: 5c84 ba3f 71a8 c13f 3fcb bd3f 6404 c43f
00000060: 1338 c13f 8344 c63f 2c78 bf3f 88d7 c33f
00000070: 8f00 b93f 7421 b33f 1b2b bf3f 47ae be3f
00000080: af3a ba3f a29b c43f 008b bd3f 87fd c63f
00000090: 8e77 c83f 6dab bd3f 971e c53f 27c9 c53f
000000a0: 9ed3 c03f ce01 c53f 1d69 b93f 1297 c13f
000000b0: ba62 c33f a745 b33f 94d6 cb3f be2d c33f
000000c0: 107b cc3f 0564 b83f 67df c33f 464e c73f
000000d0: cded c43f dc4d bb3f cc48 c53f 2543 bf3f
000000e0: 9105 c53f e25d c93f 1944 c63f 3ca4 c13f
000000f0: c603 be3f 60eb bc3f ad11 cb3f 108b d13f
00000100: 5cf0 b73f 259c b73f 4777 cc3f 20d8 ca3f
00000110: 5164 c03f f33a bc3f c257 c53f de06 ca3f
00000120: 2fc8 be3f 382b ca3f 2e7d c63f c4d8 b93f
00000130: 9305 c63f cc9e c33f c1fb be3f ced9 b83f
00000140: 4171 ca3f a858 b53f 7245 c03f 295a be3f
00000150: 7718 bb3f 27ef c03f 28d4 b43f 64b3 bc3f
00000160: a223 b93f 2316 ca3f 448f c63f 59c0 b53f
00000170: ca5b bf3f 3f43 c23f 6ac9 ba3f e48a c03f
00000180: cc31 bb3f afd6 c23f 8010 bf3f a429 b83f
00000190: 5cf1 cb3f 5273 c83f 4116 cc3f 8d29 b73f
000001a0: 50a7 cb3f 8438 c53f 19df b43f 1f6c c43f
000001b0: c8f6 c43f b72f bd3f b476 b73f 7958 c73f
000001c0: 5a65 be3f 2ff9 be3f 368c c13f ba17 bd3f
000001d0: 4dc8 c13f ee70 d73f bc12 cf3f f360 bc3f
000001e0: 9e3a c23f 2858 bd3f 9c84 c63f 789c b33f
000001f0: d67f bf3f a60a ca3f 82e5 c43f 6d2f bd3f

features.9.bias f4 [128]
-0.09763264 -0.12881242 -0.03445221 -0.11765354 -0.03688881 0.021583544 -0.1542622 -0.12657139
-0.067220934 -0.09650836 -0.16475904 -0.07946249 -0.07423838 -0.1646877 -0.026509555 -0.1655469
-0.07664156 -0.08491904 0.049601734 -0.0250982 -0.1712556 -0.13164689 -0.04259945 -0.097481556
-0.038299337 -0.042796183 -0.08012283 -0.10290873 -0.19654444 -0.0614035 -0.055177152 -0.117430724
-0.0871573 -0.05059926 -0.0785489 -0.1714918 -0.09787916 -0.104239404 -0.10643256 -0.06456683
-0.23706801 -0.1140184 -0.10660582 -0.15124346 -0.16059089 -0.1793844 -0.11040699 -0.07171376
-0.06341746 -0.06683271 -0.021286435 -0.019788763 -0.17628062 -0.18629669 -0.13502389 -0.09492509
-0.07622852 -0.24783245 -0.08402857 -0.23851986 -0.20355828 -0.08735988 -0.07307568 -0.13238546
-0.059822697 -0.11295617 -0.082869515 -0.04180655 -0.09807734 -0.07346584 -0.27900827 -0.06731539
-0.19109446 -0.1479006 -0.3805126 -0.18695344 -0.03313864 -0.21954782 -0.31236073 -0.12765181
-0.2841025 -0.04428176 -0.16574681 -0.20018227 -0.09383522 -0.09052693 -0.053809367 -0.13016297
-0.14871208 -0.13043658 -0.19648816 -0.046208497 -0.14950207 -0.10360088 -0.12601706 -0.04838557
0.0040492066 -0.3052526 -0.11713308 -0.20756727 -0.08199691 -0.09797375 -0.090669945 -0.16893739
-0.089424536 -0.070946336 -0.055483364 -0.10726394 -0.07573103 -0.19080597 -0.112250194 -0.03485219
0.0046904176 -0.046786822 -0.12788874 -0.3111747 -0.27081507 -0.26767555 -0.2600927 -0.18160878
-0.14068013 -0.07375745 -0.113656424 -0.07728041 -0.061298788 -0.10829192 -0.2545749 -0.31441894
00000000: 9ff3 c7bd 67e7 03be c31d 0dbd 57f4 f0bd
00000010: b918 17bd f9cf b03c e9f6 1dbe ee9b 01be
00000020: 21ab 89bd 2da6 c5bd 98b6 28be 3bbd a2bd
00000030: 4b0a 98bd e4a3 28be 912a d9bc 2085 29be
00000040: 40f6 9cbd 09ea adbd 302b 4b3d be9a cdbc
00000050: a15d 2fbe 71ce 06be c37c 2ebd 69a4 c7bd
00000060: c4df 1cbd 0d4b 2fbd 7017 a4bd d0c1 d2bd
00000070: f242 49be 3d82 7bbd 7001 62bd 857f f0bd
00000080: 877f b2bd 2b41 4fbd 3fde a0bd 8c9b 2fbe
00000090: de74 c8bd 787b d5bd 50f9 d9bd 9d3b 84bd
000000a0: f5c1 72be 7b82 e9bd 2754 dabd 91df 1abe
000000b0: f071 24be 8bb0 37be 0f1d e2bd aade 92bd
000000c0: 03e1 81bd 96df 88bd e460 aebc 0b1c a2bc
000000d0: e882 34be 8fc4 3ebe b443 0abe 1668 c2bd
000000e0: b31d 9cbd cac7 7dbe 2c17 acbd 8d3e 74be
000000f0: 9571 50be bde9 b2bd b4a8 95bd 0e90 07be
00000100: a508 75bd 9155 e7bd 7eb7 a9bd 583d 2bbd
00000110: c6dc c8bd 4275 96bd 2cda 8ebe a7dc 89bd
00000120: 44ae 43be 4173 17be 8cd2 c2be b970 3fbe
00000130: 62bc 07bd 25d1 60be bfed 9fbe 28b7 02be
00000140: e275 91be ca60 35bd 88b9 29be 95fc 4cbe
00000150: ae2c c0bd 2f66 b9bd 3667 5cbd 7149 05be
00000160: fb47 18be 2b91 05be 3134 49be 1f45 3dbd
00000170: 1217 19be b32c d4bd 9e0a 01be f32f 46bd
00000180: 35af 843b 124a 9cbe 78e3 efbd 848c 54be
00000190: ffed a7bd 76a6 c8bd 2ab1 b9bd ecfd 2cbe
000001a0: 3624 b7bd 504c 91bd 8642 63bd 32ad dbbd
000001b0: df18 9bbd a462 43be 6ee3 e5bd 2cc1 0ebd
000001c0: 13b2 993b 8aa3 3fbd 44f5 02be 4a52 9fbe
000001d0: 46a8 8abe c50c 89be df2a 85be a7f7 39be
000001e0: 740e 10be 250e 97bd b3c4 e8bd 3145 9ebd
000001f0: 7014 7bbd 27c8 ddbd a457 82be 85fb a0be

features.9.running_mean f4 [128]
-0.9771561 -0.9363179 0.28215426 -0.77578974 -0.55483794 0.115496926 -0.7948607 -0.79296994
-0.1430045 -0.22845563 -0.5900098 -0.8078059 -0.41811 -0.031005498 -0.18615142 -0.26354542
-0.88206434 -0.33167377 0.76991236 -0.117861964 -1.1559539 -1.1406626 -0.55470574 -0.9009554
-0.79547644 -0.46395797 0.91526383 -0.771854 -1.2344457 -0.3317337 -0.5653684 -0.82211196
-1.0359715 -0.69424623 -0.2601499 -1.477741 -0.036673114 -0.5435275 -0.6727927 0.07025294
0.11485819 -1.103521 -0.47163767 -1.6120679 -0.83492994 -0.7810719 0.31792158 -0.57348955
0.315993 -0.9833687 0.35066885 0.4256589 -0.9450881 -1.1489688 -0.17827919 -1.4933003
-0.88090235 -1.5911901 -0.09909438 -1.0801532 -1.42676 -0.019451058 -0.1637153 -0.66684705
0.24632807 -1.2199963 -0.15700313 0.012172376 -0.54048645 -0.78809613 -1.3009988 -1.2759677
-0.7761845 -0.8231379 -0.7453272 -0.123706646 -0.4962873 -1.3552952 -1.0279406 -1.0447997
-1.1348791 -0.7253807 -0.8282345 -0.41807336 -0.75340897 -0.41434515 0.5127724 -0.5723562
-0.20880486 -1.486654 -0.376687 0.05470415 -1.1724619 -0.53622913 -1.0031153 -1.4273186
-1.0942379 -0.016662156 -0.85295814 -1.6450368 -0.02656749 0.17433318 -0.79090166 -0.7592391
-0.84641844 0.13191716 1.0212643 -0.740451 -0.81921273 -0.716753 -0.5672282 0.4185432
-0.11575755 -0.712949 -0.32322612 -1.1716304 -1.0364219 -0.85409796 -0.64330626 -0.97219634
-1.0354651 -0.39744025 -1.1551534 -0.83844346 -0.9622662 -0.5559037 -0.82559687 -0.8626236
00000000: e726 7abf 88b2 6fbf 8676 903e 289a 46bf
00000010: dc09 0ebf a789 ec3d fe7b 4bbf 1400 4bbf
00000020: c66f 12be 46f0 69be e20a 17bf 5ecc 4ebf
00000030: 8412 d6be 3eff fdbc 7a9e 3ebe 6def 86be
00000040: f8ce 61bf 25d1 a9be fa18 453f 9d61 f1bd
00000050: 4cf6 93bf 3b01 92bf 3201 0ebf 03a5 66bf
00000060: 58a4 4bbf e68b edbe bb4e 6a3f 3998 45bf
00000070: 5102 9ebf 00d9 a9be fcbb 10bf ee75 52bf
00000080: b79a 84bf 1fba 31bf 5e32 85be 9e26 bdbf
00000090: 8c36 16bd 9e24 0bbf 243c 2cbf c6e0 8f3d
000000a0: c53a eb3d 2d40 8dbf 7e7a f1be 3e58 cebf
000000b0: f8bd 55bf 54f4 47bf 9ec6 a23e 36d0 12bf
000000c0: d6c9 a13e 0dbe 7bbf de8a b33e f7ef d93e
000000d0: 4bf1 71bf 6911 93bf d28e 36be 7724 bfbf
000000e0: d182 61bf 1eac cbbf fff1 cabd 7642 8abf
000000f0: 12a0 b6bf d357 9fbc fca4 27be 7db6 2abf
00000100: 6d3d 7c3e d728 9cbf 6ec5 20be a56e 473c
00000110: 525d 0abf abc0 49bf 2187 a6bf e952 a3bf
00000120: 07b4 46bf 2ab9 52bf c3cd 3ebf e959 fdbd
00000130: 5e19 febe 507a adbf 8f93 83bf ffbb 85bf
00000140: b843 91bf 8db2 39bf 2d07 54bf b60d d6be
00000150: 69df 40bf 0c25 d4be 0d45 033f f085 12bf
00000160: f1d0 55be ae4a bebf 1edd c0be 7511 603d
00000170: 3b13 96bf 5046 09bf 1566 80bf 60b2 b6bf
00000180: fd0f 8cbf 137f 88bc 775b 5abf 9190 d2bf
00000190: 11a4 d9bc 6684 323e 8878 4abf 7e5d 42bf
000001a0: e1ae 58bf 4b15 073e cab8 823f 328e 3dbf
000001b0: edb7 51bf 207d 37bf de35 11bf 4b4b d63e
000001c0: 4b12 edbd d383 36bf e57d a5be fcf7 95bf
000001d0: 79a9 84bf 2aa6 5abf b8af 24bf dce1 78bf
000001e0: 1f8a 84bf 4a7d cbbe 11dc 93bf 3ba4 56bf
000001f0: 1457 76bf b44f 0ebf 515a 53bf e6d4 5cbf

features.9.running_var f4 [128]
0.36500174 0.4820337 0.40539798 0.36639768 0.34637794 0.3359984 0.3325029 0.35991734
0.42298862 0.32621828 0.35580003 0.40225342 0.35021406 0.41132757 0.4481078 0.27440706
0.3442747 0.35407043 0.44142413 0.34312683 0.4438012 0.4117719 0.47215202 0.3656772
0.34761316 0.33703843 0.58520824 0.39505348 0.47635037 0.39637876 0.3482907 0.4498914
0.42022735 0.38556853 0.3661496 0.42050114 0.36969605 0.29470068 0.33732423 0.43066648
0.34799117 0.41605017 0.45848283 0.47538006 0.3630859 0.54085773 0.4486468 0.48755842
0.4189649 0.44545713 0.30392376 0.30470967 0.33245105 0.36886254 0.38567683 0.47876003
0.34712824 0.42463806 0.42828417 0.4293503 0.3860267 0.3189838 0.5644229 0.37792197
0.42960364 0.36585027 0.44505805 0.30022886 0.35055542 0.41754335 0.4064199 0.4495984
0.310484 0.41616136 0.42036957 0.36569843 0.4637628 0.36343923 0.30012414 0.3199835
0.39312187 0.38772416 0.33637553 0.38984802 0.34002677 0.47411323 0.3158461 0.45178166
0.3709344 0.40699825 0.5739413 0.3230589 0.48697186 0.37296504 0.34045017 0.33557853
0.41688427 0.414619 0.42559078 0.4051351 0.4784989 0.45270208 0.33614534 0.40369365
0.3956758 0.3586223 0.31718886 0.41376573 0.40150276 0.39294878 0.39322886 0.31618506
0.36300832 0.42658168 0.32394546 0.42373267 0.42818484 0.380926 0.44660488 0.34613398
0.27033982 0.36836758 0.39072233 0.37785235 0.39130548 0.42145616 0.3925072 0.28653604
00000000: 82e1 ba3e 1fcd f63e 5390 cf3e 7a98 bb3e
00000010: 7358 b13e fb07 ac3e d23d aa3e 1647 b83e
00000020: f791 d83e 1506 a73e 6c2b b63e 29f4 cd3e
00000030: 424f b33e 8799 d23e 636e e53e 157f 8c3e
00000040: c644 b03e b848 b53e 5802 e23e 52ae af3e
00000050: e939 e33e c4d3 d23e e9bd f13e 0b3a bb3e
00000060: 5afa b13e 4d90 ac3e 35d0 153f 7344 ca3e
00000070: 32e4 f33e 28f2 ca3e 2953 b23e 2a58 e63e
00000080: 0a28 d73e 3d69 c53e f677 bb3e ed4b d73e
00000090: cd48 bd3e 02e3 963e c3b5 ac3e 5180 dc3e
000000a0: e62b b23e 8704 d53e 43be ea3e 0465 f33e
000000b0: 65e6 b93e a775 0a3f 09b5 e53e 42a1 f93e
000000c0: 9182 d63e f512 e43e e59b 9b3e e802 9c3e
000000d0: 0637 aa3e 8ddb bc3e 6f77 c53e 0920 f53e
000000e0: cbba b13e 296a d93e 1048 db3e cdd3 db3e
000000f0: 4ba5 c53e d851 a33e 057e 103f fd7e c13e
00000100: 02f5 db3e ba50 bb3e a6de e33e 99b7 993e
00000110: 007c b33e 3ec8 d53e 4516 d03e c331 e63e
00000120: c2f7 9e3e 1a13 d53e ae3a d73e d33c bb3e
00000130: 5172 ed3e b514 ba3e dfa9 993e e1d4 a33e
00000140: 4547 c93e c883 c63e 6a39 ac3e 299a c73e
00000150: fd17 ae3e f8be f23e 94b6 a13e ed4f e73e
00000160: 1deb bd3e 1362 d03e d1ed 123f fa67 a53e
00000170: 6054 f93e 46f5 be3e 7c4f ae3e f3d0 ab3e
00000180: db71 d53e f148 d43e 09e7 d93e de6d cf3e
00000190: cffd f43e 91c8 e73e 3e1b ac3e efb0 ce3e
000001a0: 0596 ca3e 589d b73e 9466 a23e 1ad9 d33e
000001b0: c591 cd3e 9530 c93e 4b55 c93e 02e3 a13e
000001c0: 3adc b93e ea68 da3e 2edc a53e 7df3 d83e
000001d0: 0b3b db3e bc08 c33e 65a9 e43e 7938 b13e
000001e0: fb69 8a3e ad9a bc3e c20c c83e dd75 c13e
000001f0: 3159 c83e 1ac9 d73e b4f6 c83e dab4 923e
