24x24train_CNN9_80e/best_int8.onnx (onnx, 103154 bytes, 8 tensors)

classifier.2.bias f4 [10]
00000000: 438b 873b 7958 8f3d e51a 34bd b707 353d
00000010: 85a1 83bc 8be7 a13d d239 18bd 0398 2fbd
00000020: d6a6 803d 7088 30bd
0.0041364743 0.06999297 -0.04397096 0.04419681 -0.01606823 0.079054914 -0.037164517 -0.04286958
0.062818214 -0.043098867

onnx::Conv_41 f4 [32]
00000000: fce8 15be 8056 e73e 98ca ffbd 1e48 b13d
00000010: fcd4 7ebf c906 aabe 14ea 61bd d9a5 143f
00000020: 7e7c 52bf 7ee9 743f a70d 983e e258 8cbf
00000030: c648 95bf ff31 f5bd 6a30 82bf 0762 dbbe
00000040: 3aa3 07be 4141 1fbe bdf9 7dbf 5482 68bf
00000050: 5b2b 8b3f be32 8bbe 6ca7 50bf 1908 1cbe
00000060: fe4d 8d3e 0a70 6f3f 2267 64bd b946 00bf
00000070: f427 94bd 9872 553c 3f70 9ebf 93ae 31be
-0.14639658 0.45183182 -0.124898136 0.086563334 -0.9954374 -0.33208302 -0.055154875 0.58065563
-0.8222121 0.9566878 0.29697916 -1.0964625 -1.1662834 -0.119724266 -1.0171025 -0.42848226
-0.1324586 -0.15552236 -0.99209195 -0.90823865 1.0872606 -0.2718715 -0.81505466 -0.15237464
0.27598566 0.93530333 -0.055762418 -0.50107914 -0.07234183 0.01302781 -1.2378005 -0.17351751

onnx::Conv_44 f4 [64]
00000000: c040 39bc cfe6 163f 50e7 d03d 78cb 353e
00000010: 6441 ad3e 3729 fe3e 744b 4a3f fab5 c53e
00000020: b640 9a3e d04e 813f cd14 da3e fa85 da3e
00000030: d57e a53e e442 323f 7e25 383f 24a8 d73e
00000040: 8812 f63d 26d7 753e 00b6 193f 7c72 4b3f
00000050: b4a0 df3d da3c d33e 0e2a 653f 1bc8 e73e
00000060: fc77 d43e 0570 803e 9b1c ec3e 6e9e 473f
00000070: 4aaa ed3e fe41 233e 9acb 2d3e 721a d63e
00000080: 4c5c b23d 1ab9 193f d640 d33e b697 9fbe
00000090: 4c43 e63d b348 473f 03ff 513f 3e2e 083f
000000a0: fc1e c93d d4cc 173f 9c75 cd3d 4c43 c53e
000000b0: a002 423e 954f ec3e b6ec 0a3f b5e6 6a3f
000000c0: 4c36 6abf 7608 033f f02e e43d eac5 453e
000000d0: 5cde 2e3f 2d33 6f3f 744c 283f 22e8 173f
000000e0: e281 bf3e 20d6 d03e 41dd c93e aaa5 393f
000000f0: 7478 0a3f fda7 403f f676 0a3f fede bd3e
-0.0113069415 0.58945936 0.10200369 0.17753398 0.33838952 0.4964082 0.7902138 0.386154
0.30127496 1.0102177 0.42593995 0.4268034 0.32323328 0.69633317 0.7193221 0.4212047
0.12015253 0.24007854 0.60043335 0.79471564 0.109193236 0.41257364 0.89517295 0.45269856
0.4149779 0.25085464 0.46115574 0.7797612 0.46418983 0.15943143 0.16972199 0.4181705
0.087090105 0.6004807 0.41260403 -0.31170434 0.112433046 0.77845305 0.8202974 0.5319556
0.09820363 0.5929692 0.10032198 0.38527906 0.18946314 0.46154466 0.5426744 0.9175828
-0.914891 0.51184785 0.11141765 0.1931378 0.68308043 0.93437463 0.6574166 0.5933858
0.3740378 0.40788364 0.39426616 0.7251841 0.54090047 0.7525633 0.5408777 0.37084192

onnx::Conv_47 f4 [128]
00000000: d5bc 2140 51d1 ff3f da5f 43bf 1a62 d83f
00000010: d783 a13f e213 cebe a2c5 dc3f 00a6 e23f
00000020: 0aff 883e c4f8 043f 44db b43f 51cd ea3f
00000030: 684e 643f 807e c2bb 59ff d03e 8268 273f
00000040: 59ba 1440 24fe 2b3f b497 d0bf 41ec 933e
00000050: ccbf 1840 346c 2040 defb 903f 5a5d 0c40
00000060: 12bf fd3f c1e0 8c3f 2785 e8bf 29fe e83f
00000070: 3a34 1640 67d8 1b3f 9ef5 a53f f86e d93f
00000080: e65b 0b40 e308 cd3f 9a0d f33e 8e70 5940
00000090: 3242 e2bd 04ca b83f d4e3 df3f 7937 87be
000000a0: c616 e5be f0ed 2340 0ff2 4f3f 9976 5340
000000b0: 0e47 0240 ae59 a93f 57bd 52bf 0d68 973f
000000c0: c970 64bf b92c ff3f 5b84 71bf adc8 aabf
000000d0: 2ac6 1240 cb28 2e40 aa5f 453e 717a 4640
000000e0: 1998 1040 3865 6740 d155 843e e111 0c40
000000f0: 5a4c 4840 6409 90bd 5e0f ac3e a279 e23f
00000100: bf68 31bf c593 2c40 9beb 613e d293 03be
00000110: 75ab 9d3f 7cf1 e13f f0d7 3440 30c4 3740
00000120: f563 0140 0213 ea3f bd29 b43f 376c 083e
00000130: b26c 833f 0e04 4e40 8767 1e40 e0cb 2540
00000140: b70a 2a40 cb93 c93f d8cd 0040 43a5 463f
00000150: 5efc da3f 393d 4a3f a588 9abf 15c0 833f
00000160: fede cf3e ac14 6440 3a66 173f c961 a3be
00000170: 78b5 1540 3712 993f 9233 1440 59a3 6a40
00000180: 199f 1a40 97fd a1be c489 f03f 15cc 5c40
00000190: 7000 513c 6492 f2be 6a70 0a40 fe65 c83f
000001a0: 61a1 fa3f f232 e3be 05d6 22c0 98e2 cc3f
000001b0: b960 e63f 10e0 b63f 38cd 9f3f b520 8abf
000001c0: 935a 5e3e 9f47 c03f 705e 1d3f 45d7 1740
000001d0: e07a 0b40 51a4 fd3f 97b7 a23f 460f 0b40
000001e0: 28cb 3940 3945 783f f9e5 3640 66ae e93f
000001f0: d7ec 0d40 c907 a63f 0f98 e73f 67cb fd3f
2.5271504 1.9985753 -0.7631813 1.6904938 1.2618359 -0.40249544 1.7247813 1.7706909
0.2675708 0.51942086 1.4129415 1.8343908 0.8918214 -0.00593549 0.40819815 0.6539384
2.3238738 0.6718466 -1.6296296 0.28891185 2.3867064 2.5066042 1.1326864 2.1931977
1.9823935 1.100609 -1.8165635 1.8202564 2.3469377 0.6087708 1.2965581 1.698699
2.177484 1.6018337 0.47471315 3.3974948 -0.11047782 1.443665 1.7491403 -0.2640951
-0.44743937 2.5613976 0.8122873 3.3041136 2.0355868 1.3230493 -0.8232016 1.1828629
-0.89234596 1.9935523 -0.94342583 -1.3342491 2.293345 2.7212398 0.19274774 3.1012232
2.2592833 3.615553 0.25846723 2.1885912 3.1296601 -0.07033041 0.33605474 1.7693369
-0.69300455 2.6965191 0.22062533 -0.12849358 1.231795 1.765182 2.8256798 2.8713493
2.021726 1.8287051 1.4075238 0.1332253 1.0267546 3.2189975 2.4750688 2.5905685
2.656904 1.5748228 2.0125637 0.7759592 1.7108266 0.7899967 -1.2072951 1.0292994
0.40599817 3.5637617 0.5914036 -0.31910542 2.339201 1.1958684 2.3156476 3.66622
2.4159606 -0.31638786 1.8792043 3.4499562 0.012756452 -0.47377312 2.1631112 1.5656126
1.9580499 -0.44374806 -2.5443127 1.6006651 1.7998267 1.4287128 1.2484503 -1.0791231
0.21714239 1.5021857 0.61472225 2.372514 2.1793747 1.981577 1.2712277 2.1728072
2.9030247 0.96980625 2.8577864 1.8256347 2.2175806 1.2971126 1.809328 1.9827698

onnx::Conv_40_quantized i1 [32, 1, 3, 3]
00000000: ecf6 f111 fefb 080d 120d e7f7 21df 171a
00000010: ef03 eff5 0eeb 000c d718 281c e7ec 1324
00000020: cf12 f909 cb03 313e f3ca e7f4 0d03 0f10
00000030: faf7 1aed f4ea 0a1a f51e 12ec ffeb e3ee
00000040: 0b0a f304 15f2 0e05 edf7 efef 1000 f40a
00000050: 10f5 fcfd f41e 1bf5 1feb cb7f a3f0 0510
00000060: 30cf 16fe fbfb fdfd f707 fff3 fb02 f5fc
00000070: 02fa f204 f90d cb02 f416 23ff 3fb0 e60f
00000080: 0fe6 000e f906 e7e6 eef7 1315 0411 07e8
00000090: f21a fb2a efe3 25ea ee0c eafd f30a dc22
000000a0: 1000 25ed e5f4 fc1f f40d d91c 00e5 e00e
000000b0: e0d4 2a1c 120c 02f8 f9f4 1003 0d09 e73a
000000c0: f4f5 07d7 23ed fff2 e81e 08ec 0ef1 03ea
000000d0: 09f4 e9f5 0a14 0a15 2014 f2db d806 19fc
000000e0: 1d06 0908 0205 07ff fc05 fae8 ec26 1b14
000000f0: d8fb 0324 16f9 f7ec e000 ee0f d7e9 40d2
-20 -10 -15 17 -2 -5 8 13
18 13 -25 -9 33 -33 23 26
-17 3 -17 -11 14 -21 0 12
-41 24 40 28 -25 -20 19 36
-49 18 -7 9 -53 3 49 62
-13 -54 -25 -12 13 3 15 16
-6 -9 26 -19 -12 -22 10 26
-11 30 18 -20 -1 -21 -29 -18
11 10 -13 4 21 -14 14 5
-19 -9 -17 -17 16 0 -12 10
16 -11 -4 -3 -12 30 27 -11
31 -21 -53 127 -93 -16 5 16
48 -49 22 -2 -5 -5 -3 -3
-9 7 -1 -13 -5 2 -11 -4
2 -6 -14 4 -7 13 -53 2
-12 22 35 -1 63 -80 -26 15
15 -26 0 14 -7 6 -25 -26
-18 -9 19 21 4 17 7 -24
-14 26 -5 42 -17 -29 37 -22
-18 12 -22 -3 -13 10 -36 34
16 0 37 -19 -27 -12 -4 31
-12 13 -39 28 0 -27 -32 14
-32 -44 42 28 18 12 2 -8
-7 -12 16 3 13 9 -25 58
-12 -11 7 -41 35 -19 -1 -14
-24 30 8 -20 14 -15 3 -22
9 -12 -23 -11 10 20 10 21
32 20 -14 -37 -40 6 25 -4
29 6 9 8 2 5 7 -1
-4 5 -6 -24 -20 38 27 20
-40 -5 3 36 22 -7 -9 -20
-32 0 -18 15 -41 -23 64 -46

onnx::Conv_43_quantized i1 [64, 32, 3, 3]
00000000: fb00 fffd f8fb 1c15 1d16 ff07 08f1 ef17
00000010: 2214 10f7 03f8 f0ff 070d 040d f412 edf1
00000020: eb0f 00fd 05f2 09f2 fdfa 0e08 08ed f51f
00000030: 0ff3 eb0e 0b16 06f6 f2e4 040e 0803 fce6
00000040: ed05 e1fc e9f9 0ff9 f7fd fbf2 fb07 0f08
00000050: 0ce9 f9f5 eeec f1fc fd09 fbf7 e7f6 03fe
00000060: 150b e7e9 fedd 02f1 ed1c 0217 e4e9 e3e8
00000070: f400 0311 13fd 00ff 0516 00f3 0bf0 dddd
00000080: 0014 f3f2 1318 0f00 f102 04f1 f514 1513
00000090: ecea fde7 ff0a fb00 0613 f0fc 17f0 e30b
000000a0: 01ff e2ea e400 0af7 0c0c 1114 09ec ea09
000000b0: 01f3 0bfe 02fd f808 05fa faf4 01e8 0914
000000c0: 0ef8 f40f 2010 fef8 0304 08f2 ff1c fffa
000000d0: eef1 f505 0912 030d fdfa 0af6 fb0c 13fc
000000e0: 0c0a 0708 ebe4 eef5 05f2 01f5 0608 01fe
000000f0: 05fe f50d 1111 f7f8 f921 1706 f6e8 fed8
-5 0 -1 -3 -8 -5 28 21
29 22 -1 7 8 -15 -17 23
34 20 16 -9 3 -8 -16 -1
7 13 4 13 -12 18 -19 -15
-21 15 0 -3 5 -14 9 -14
-3 -6 14 8 8 -19 -11 31
15 -13 -21 14 11 22 6 -10
-14 -28 4 14 8 3 -4 -26
-19 5 -31 -4 -23 -7 15 -7
-9 -3 -5 -14 -5 7 15 8
12 -23 -7 -11 -18 -20 -15 -4
-3 9 -5 -9 -25 -10 3 -2
21 11 -25 -23 -2 -35 2 -15
-19 28 2 23 -28 -23 -29 -24
-12 0 3 17 19 -3 0 -1
5 22 0 -13 11 -16 -35 -35
0 20 -13 -14 19 24 15 0
-15 2 4 -15 -11 20 21 19
-20 -22 -3 -25 -1 10 -5 0
6 19 -16 -4 23 -16 -29 11
1 -1 -30 -22 -28 0 10 -9
12 12 17 20 9 -20 -22 9
1 -13 11 -2 2 -3 -8 8
5 -6 -6 -12 1 -24 9 20
14 -8 -12 15 32 16 -2 -8
3 4 8 -14 -1 28 -1 -6
-18 -15 -11 5 9 18 3 13
-3 -6 10 -10 -5 12 19 -4
12 10 7 8 -21 -28 -18 -11
5 -14 1 -11 6 8 1 -2
5 -2 -11 13 17 17 -9 -8
-7 33 23 6 -10 -24 -2 -40

onnx::Conv_46_quantized i1 [128, 64, 3, 3]
00000000: eabf de09 02e8 f304 0dee f7ed e1f5 062e
00000010: ff42 15eb 0d18 e802 ecff 2dd6 dfc3 15ec
00000020: 1bc4 fee9 0125 200e 271a 00a4 c4f9 e9e2
00000030: d50e 04f3 e814 e60d 05ff defd 482b 54fa
00000040: 05f7 f107 f105 e7e6 141f 4d1a e7ef ddf7
00000050: 06f9 fb19 f7c4 dd2d 011d f5de dd29 1c3b
00000060: 25e6 d221 fadc ea1b 1903 0f2f 1228 17ec
00000070: dd02 1ef8 d800 1407 dedf 1d00 0813 1540
00000080: 21fa ffea e3c2 d3f7 fbfc 02ea ffeb e9ff
00000090: fbee fb1e 2de4 dae7 e108 f2ff ff05 e12a
000000a0: 1df3 4c03 f6f3 09ff 09ec f7f1 0d14 e4f6
000000b0: 11fc f92a f7fd 0b00 ecf2 2e1e 1f0c e71a
000000c0: 0bde 1506 0d07 e717 f1fb d705 e2f4 ee18
000000d0: 0f0b e8f4 fb06 ca0b fbf2 fc41 fa26 a3c9
000000e0: e310 11f4 0205 fff0 e01e 0702 01e6 d4e6
000000f0: efc6 e721 f2e9 1233 02e5 2bea 1216 fd19
-22 -65 -34 9 2 -24 -13 4
13 -18 -9 -19 -31 -11 6 46
-1 66 21 -21 13 24 -24 2
-20 -1 45 -42 -33 -61 21 -20
27 -60 -2 -23 1 37 32 14
39 26 0 -92 -60 -7 -23 -30
-43 14 4 -13 -24 20 -26 13
5 -1 -34 -3 72 43 84 -6
5 -9 -15 7 -15 5 -25 -26
20 31 77 26 -25 -17 -35 -9
6 -7 -5 25 -9 -60 -35 45
1 29 -11 -34 -35 41 28 59
37 -26 -46 33 -6 -36 -22 27
25 3 15 47 18 40 23 -20
-35 2 30 -8 -40 0 20 7
-34 -33 29 0 8 19 21 64
33 -6 -1 -22 -29 -62 -45 -9
-5 -4 2 -22 -1 -21 -23 -1
-5 -18 -5 30 45 -28 -38 -25
-31 8 -14 -1 -1 5 -31 42
29 -13 76 3 -10 -13 9 -1
9 -20 -9 -15 13 20 -28 -10
17 -4 -7 42 -9 -3 11 0
-20 -14 46 30 31 12 -25 26
11 -34 21 6 13 7 -25 23
-15 -5 -41 5 -30 -12 -18 24
15 11 -24 -12 -5 6 -54 11
-5 -14 -4 65 -6 38 -93 -55
-29 16 17 -12 2 5 -1 -16
-32 30 7 2 1 -26 -44 -26
-17 -58 -25 33 -14 -23 18 51
2 -27 43 -22 18 22 -3 25

classifier.2.weight_quantized i1 [128, 10]
00000000: 372c 15ee d3e9 d0c7 47a9 090d b6fd 30fa
00000010: 2d35 16a9 e91c 26d5 aa01 0553 39f6 dad5
00000020: de16 ea28 33d9 de3a e113 dedb 0adf e6ec
00000030: 501d e914 dcd7 24e6 d3fe e261 f4d5 d6ca
00000040: fddf 371a 083b fcc7 161e 300b e02b bc3d
00000050: 02f7 47b4 be3c e91c 1dd1 dded 4abe d33b
00000060: d629 f0fb cef8 d629 d9d6 f4fa 490d 2226
00000070: d025 17dd 3cab f1f5 3fc0 ea32 c423 fcd8
00000080: eaf3 fae6 ba1d 00e5 fd7d 0adb 3528 e5e6
00000090: d72e bec8 e53b 0ef7 e9fa 16e9 b6e1 5fbd
000000a0: 2fe9 ced5 d3dd cbfc cf67 cd39 31d3 c6d1
000000b0: 2ffc 36fb c435 24c9 1c23 fdc7 0cf9 c433
000000c0: cefc 30e8 460c dbe1 e0d1 d7e7 b430 2cf6
000000d0: 1837 d140 3315 fb2e c9fd d2db 1e35 0650
000000e0: dae4 bb04 c0f2 1444 f8dc 00c3 40ca 26af
000000f0: 2818 e2f6 36f9 fba9 2dc3 f230 f9c2 41f8
55 44 21 -18 -45 -23 -48 -57
71 -87 9 13 -74 -3 48 -6
45 53 22 -87 -23 28 38 -43
-86 1 5 83 57 -10 -38 -43
-34 22 -22 40 51 -39 -34 58
-31 19 -34 -37 10 -33 -26 -20
80 29 -23 20 -36 -41 36 -26
-45 -2 -30 97 -12 -43 -42 -54
-3 -33 55 26 8 59 -4 -57
22 30 48 11 -32 43 -68 61
2 -9 71 -76 -66 60 -23 28
29 -47 -35 -19 74 -66 -45 59
-42 41 -16 -5 -50 -8 -42 41
-39 -42 -12 -6 73 13 34 38
-48 37 23 -35 60 -85 -15 -11
63 -64 -22 50 -60 35 -4 -40
-22 -13 -6 -26 -70 29 0 -27
-3 125 10 -37 53 40 -27 -26
-41 46 -66 -56 -27 59 14 -9
-23 -6 22 -23 -74 -31 95 -67
47 -23 -50 -43 -45 -35 -53 -4
-49 103 -51 57 49 -45 -58 -47
47 -4 54 -5 -60 53 36 -55
28 35 -3 -57 12 -7 -60 51
-50 -4 48 -24 70 12 -37 -31
-32 -47 -41 -25 -76 48 44 -10
24 55 -47 64 51 21 -5 46
-55 -3 -46 -37 30 53 6 80
-38 -28 -69 4 -64 -14 20 68
-8 -36 0 -61 64 -54 38 -81
40 24 -30 -10 54 -7 -5 -87
45 -61 -14 48 -7 -62 65 -8
